checkpoints_finetuning/spec_denoiser/model_ckpt_steps_585750.ckpt (torch_old, 4208 bytes, 3 tensors)

exp_avg f4 [1, 256]
-0.0003139406 -0.00027706206 0.0001959571 5.097649e-05 0.000114697745 -2.2570284e-06 0.00019495527 -0.00040620237
-0.00024170631 3.6413723e-05 -0.00016148952 0.00072875386 7.045042e-05 -8.548373e-05 0.0003339866 -0.00027453876
-2.0037276e-05 -0.00012405156 0.00025692512 -0.00018951009 5.4197233e-05 0.00035114744 -9.336095e-05 -0.00046356348
-3.6995356e-05 -0.00019481988 -0.00010843697 -6.0089653e-05 0.00029748326 0.0006145761 -0.0002153765 -0.0007128672
-0.00023357601 3.235752e-05 -0.00053675973 -0.0005390444 -0.0005314575 -0.0002536196 0.0004809059 8.981325e-05
-0.0001926201 -3.3829417e-07 0.00063050626 3.055007e-05 -0.00039740722 7.623727e-05 -0.00023427955 0.00016208351
-0.00014532116 0.00034365663 0.00034040477 0.00044209312 -4.539674e-05 0.000402006 -0.0001682011 -0.00016149078
0.00047004555 0.0002554251 -0.00018856919 -0.00035334218 -0.000314768 0.000248389 -0.0003709339 -5.5889577e-05
-2.4831994e-05 -0.0002197699 -4.674241e-06 -0.00027538228 0.00032412147 0.0004542723 0.00015919998 -0.00030108078
4.104941e-05 -0.00032974474 0.00012497253 -3.6376547e-05 -0.00026305765 -0.0005458034 -4.6366654e-06 0.00043115666
-0.00018124186 -0.00010160975 -0.00031616128 0.00024263031 5.8920148e-05 -0.00033506 -0.000109068955 -0.00035721945
0.00032148865 0.00065841933 4.887199e-05 0.00037159515 -0.0003604485 0.0003603559 0.0006932521 -2.9300209e-05
-0.00010278064 6.95198e-05 1.2403197e-05 0.0005272596 0.00021784513 -0.00017291159 -0.000111654466 0.0002802884
-9.436186e-05 9.784044e-05 0.00025665978 0.00033608475 0.0003355299 0.00022442659 0.00014361458 -8.020829e-05
0.00047532714 -7.238491e-05 -0.0002177641 -0.00010479841 -0.000105444444 -4.137447e-05 -3.928386e-05 2.4775252e-05
0.00010194395 0.0001364761 0.00014968598 -0.00015596345 0.0004056385 8.067573e-05 0.0002718688 3.551362e-05
-2.3827206e-05 -0.0002103385 -0.00032811542 -0.00028561772 4.6468267e-05 0.00019870112 -6.297452e-05 -0.00020249379
-0.00018401771 -0.0005128078 5.7254023e-05 -1.7404365e-05 0.00020371815 0.00020755111 -0.00024671914 9.537268e-05
-0.00023521212 -0.00016332213 -0.00031537717 0.0003558388 -0.00018241681 7.7848716e-05 0.0008670625 -9.964969e-05
0.00014439525 -0.00022696555 -0.00017834986 0.00012122845 -0.00024082499 -9.7329204e-05 -0.00021438084 0.00044524475
-0.00038499522 -0.00031646076 0.00022325302 -0.00016627712 4.3844124e-05 7.396478e-05 0.00036711447 0.00026107996
-6.6242996e-05 -0.0003446992 0.000333093 -0.00020969358 0.0004434625 0.0003050774 -0.00053109124 1.2818032e-05
8.965027e-05 -0.00020222293 3.8951766e-05 -8.3461804e-05 -0.0002094859 -0.0002928818 -0.0005109268 -6.7096817e-06
0.00023198388 0.00019708445 -9.476304e-06 -8.9269747e-07 -0.0005344017 -0.00022610031 0.00030891332 -0.00039716536
5.6262867e-05 -0.0004096112 0.00010339317 0.0006421521 0.00053889083 -0.00070918276 -0.0005065957 0.00023888808
1.654708e-05 0.00028407067 0.0003765787 0.00017614345 -0.00067105296 0.00039833484 0.00023515754 -0.00018081426
-0.00010285034 0.0005068957 9.716453e-05 0.00024670924 0.00024105616 -0.00022402407 0.00014978039 -7.922945e-05
-0.0003566239 -0.00032888263 -3.335652e-05 0.00022707481 0.0001996827 -0.00012689762 0.00074692554 0.00061676046
-0.00011295988 0.00038666918 0.000111181056 2.3139342e-05 0.00039501442 0.00021235779 5.1858446e-05 0.00022437943
-0.0004893536 0.00028413488 0.0001095075 -1.5532742e-05 -0.00039700756 0.00022260226 -0.0005157613 -0.0007443703
0.00033473084 0.00010592829 0.00020296239 -7.2529394e-05 -0.0002225408 0.000321499 -0.00039656475 0.00023727819
-4.0053095e-05 -0.00039326388 -0.0005093643 0.0004065545 6.3698426e-06 -0.0005350758 -0.00044214897 -2.5329002e-05
00000000: 6598 a4b9 a442 91b9 d579 4d39 97cf 5538
00000010: e289 f038 7477 17b6 e86c 4c39 8ff7 d4b9
00000020: 8b72 7db9 f0ba 1838 8355 29b9 d809 3f3a
00000030: c8be 9338 ba45 b3b8 ec1a af39 f8ef 8fb9
00000040: b915 a8b7 d613 02b9 e8b3 8639 3ab7 46b9
00000050: d651 6338 361a b839 c7ca c3b8 700a f3b9
00000060: 762b 1bb8 9048 4cb9 a868 e3b8 c608 7cb8
00000070: 87f7 9b39 811b 213a b0d6 61b9 b5df 3aba
00000080: 15ec 74b9 9fb7 0738 56b5 0cba a84e 0dba
00000090: 8251 0bba 3ff8 84b9 1922 fc39 1f5a bc38
000000a0: 10fa 49b9 cc9e b5b4 8f48 253a e322 0038
000000b0: 185b d0b9 93e1 9f38 f0a8 75b9 f6f4 2939
000000c0: 5a61 18b9 d02c b439 5b78 b239 bcc8 e739
000000d0: 6168 3eb8 55c4 d239 245f 30b9 da55 29b9
000000e0: 7270 f639 94ea 8539 a8ba 45b9 c940 b9b9
000000f0: 7207 a5b9 353a 8239 e879 c2b9 fa6a 6ab8
00000100: 4d4e d0b7 0972 66b9 6dd7 9cb6 2f61 90b9
00000110: d9ee a939 652b ee39 ebee 2639 61da 9db9
00000120: 782c 2c38 97e1 acb9 0f0b 0339 0593 18b8
00000130: 00eb 89b9 3f14 0fba a794 9bb6 de0c e239
00000140: be0b 3eb9 5217 d5b8 73c2 a5b9 946a 7e39
00000150: 0721 7738 feaa afb9 f3bb e4b8 2f49 bbb9
00000160: 7a8d a839 c699 2c3a e6fb 4c38 a8d2 c239
00000170: 94fa bcb9 26ee bc39 5cbb 353a b8c9 f5b7
00000180: f08b d7b8 29cb 9138 5317 5037 cb37 0a3a
00000190: 5b6d 6439 9a4f 35b9 0928 eab8 acf3 9239
000001a0: 23e4 c5b8 b02f cd38 4b90 8639 8834 b039
000001b0: 10ea af39 0e54 6b39 3f97 1639 7f35 a8b8
000001c0: 5435 f939 5acd 97b8 9b57 64b9 38c7 dbb8
000001d0: 0e22 ddb8 8089 2db8 b9c4 24b8 73d4 cf37
000001e0: beca d538 061b 0f39 06f5 1c39 1f8a 23b9
000001f0: e1ab d439 7430 a938 9d89 8e39 76f4 1438
00000200: 89e0 c7b7 508e 5cb9 e806 acb9 f6be 95b9
00000210: ece6 4238 6d5a 5039 3011 84b8 8354 54b9
00000220: e1f4 40b9 f36d 06ba 0a24 7038 97ff 91b7
00000230: 2d9d 5539 14a2 5939 155a 81b9 d102 c838
00000240: 46a3 76b9 7341 2bb9 3559 a5b9 e08f ba39
00000250: 2447 3fb9 b642 a338 944b 633a 05fb d0b8
00000260: ce68 1739 9afd 6db9 6d03 3bb9 073c fe38
00000270: f785 7cb9 381d ccb8 6bcb 60b9 bd6f e939
00000280: 2fd9 c9b9 a5ea a5b9 0719 6a39 ad5a 2eb9
00000290: 45e5 3738 8a1d 9b38 4579 c039 8fe1 8839
000002a0: f0eb 8ab8 beb8 b4b9 fca2 ae39 31e1 5bb9
000002b0: 8780 e839 ccf2 9f39 ee38 0bba 070d 5737
000002c0: 9f02 bc38 ce0b 54b9 2460 2338 3708 afb8
000002d0: 71a9 5bb9 ee8d 99b9 b8ef 05ba ba23 e1b6
000002e0: b340 7339 74a8 4e39 6afc 1eb7 b4a1 6fb5
000002f0: 1717 0cba 5715 6db9 a5f5 a139 a23a d0b9
00000300: cbfb 6b38 16c1 d6b9 c9d4 d838 1956 283a
00000310: 5a44 0d3a 73e8 39ba 10cd 04ba 087e 7a39
00000320: 95ce 8a37 52ef 9439 8a6f c539 26b3 3839
00000330: 9ae9 2fba 99d7 d039 9f94 7639 f598 3db9
00000340: 5bb1 d7b8 32e1 043a cfc4 cb38 c158 8139
00000350: 05c4 7c39 01e8 6ab9 5e0e 1d39 fd27 a6b8
00000360: 40f9 bab9 e16d acb9 4ae8 0bb8 ee1a 6e39
00000370: eb61 5139 d20f 05b9 53cd 433a 18ae 213a
00000380: e0e4 ecb8 dcb9 ca39 e029 e938 5c1b c237
00000390: f019 cf39 5cac 5e39 9582 5938 6547 6b39
000003a0: f747 00ba f0f7 9439 64a7 e538 4f4c 82b7
000003b0: 7425 d0b9 576a 6939 2834 07ba d821 43ba
000003c0: d07e af39 d125 de38 4dd2 5439 ec1a 98b8
000003d0: d759 69b9 de8e a839 05ea cfb9 e1cd 7839
000003e0: affe 27b8 fc2e ceb9 dc86 05ba d226 d539
000003f0: 88bc d536 5444 0cba 3bd0 e7b9 9e79 d4b7

exp_avg_sq f4 [1, 256]
2.5234085e-06 1.5202497e-06 2.4921665e-06 1.3784187e-06 1.78429e-06 1.9563956e-06 1.9581319e-06 1.5521051e-06
1.882863e-06 1.936008e-06 1.9009232e-06 1.9686963e-06 1.8440882e-06 1.6241664e-06 1.8833639e-06 3.5235469e-06
2.1652822e-06 2.2414333e-06 2.036401e-06 1.9418587e-06 1.4353797e-06 1.986101e-06 1.4534257e-06 2.6734235e-06
1.6402074e-06 2.677388e-06 2.0251564e-06 9.3623584e-07 1.3402708e-06 3.0850224e-06 1.3808883e-06 2.2538475e-06
2.2871402e-06 1.6860632e-06 2.0823372e-06 1.9246554e-06 1.6073454e-06 2.1302922e-06 3.3287838e-06 1.2779183e-06
2.9167104e-06 1.8197555e-06 2.613218e-06 1.3776499e-06 4.1603967e-06 1.3817258e-06 1.5685366e-06 1.8505322e-06
1.5223983e-06 3.6279625e-06 2.9840792e-06 1.6674783e-06 1.311129e-06 5.9689137e-06 1.6364851e-06 3.0409753e-06
2.1940941e-06 1.5006443e-06 1.9883134e-06 1.3273971e-06 2.4000924e-06 2.0202335e-06 1.4854277e-06 1.9839247e-06
3.0390238e-06 2.0585317e-06 2.5464162e-06 1.7977358e-06 1.7478471e-06 2.2547433e-06 1.615586e-06 2.6967657e-06
1.5184992e-06 1.8302338e-06 3.735494e-06 2.298277e-06 2.2430029e-06 2.5296624e-06 1.1270791e-06 1.7701311e-06
2.918088e-06 2.4119604e-06 1.6694486e-06 1.5894939e-06 2.0010964e-06 2.1629535e-06 4.1615353e-06 3.0613478e-06
1.6596723e-06 2.327597e-06 3.4188952e-06 1.3271183e-06 1.9060022e-06 1.3868995e-06 2.1891858e-06 2.9172531e-06
1.7554411e-06 1.5514776e-06 3.3470303e-06 3.3699762e-06 2.9584291e-06 1.3435629e-06 3.3146064e-06 2.4743456e-06
1.564599e-06 2.0480686e-06 1.6703245e-06 2.8386103e-06 1.5335806e-06 2.5374698e-06 1.3546111e-06 1.5814658e-06
2.3880032e-06 2.8222023e-06 3.4945522e-06 1.7484477e-06 2.1169883e-06 4.27387e-06 2.5825839e-06 1.6584345e-06
1.9119718e-06 1.667899e-06 3.285081e-06 1.9143351e-06 8.24882e-06 3.982993e-06 1.947296e-06 1.3905062e-06
2.1747678e-06 1.9553418e-06 1.5538078e-06 1.6388091e-06 2.386682e-06 2.198265e-06 2.3979185e-06 2.2077809e-06
2.5022023e-06 3.9532156e-06 1.4590947e-06 1.4712568e-06 3.057568e-06 1.9783367e-06 2.5148224e-06 1.311184e-06
2.3948119e-06 1.3984582e-06 4.209797e-06 1.8267937e-06 1.8260813e-06 1.377316e-06 1.7701526e-06 2.3817888e-06
4.581474e-06 1.5850828e-06 2.2115162e-06 1.8069862e-06 1.833028e-06 1.6459724e-06 2.0991383e-06 1.7393663e-06
1.7256307e-06 1.8679175e-06 1.6479481e-06 1.8204685e-06 1.7801777e-06 2.950924e-06 3.1248617e-06 2.04747e-06
2.0286561e-06 1.6697205e-06 1.8317289e-06 1.236927e-06 2.5694617e-06 3.6597019e-06 3.5011733e-06 2.6729085e-06
4.4118033e-06 1.5251193e-06 1.3157686e-06 2.0286104e-06 2.616833e-06 1.974483e-06 3.6773222e-06 1.716614e-06
2.6293121e-06 2.9307002e-06 2.086883e-06 2.005515e-06 1.842497e-06 1.9978415e-06 2.1254996e-06 3.8007129e-06
4.266499e-06 3.2117825e-06 1.9166946e-06 4.132384e-06 2.7618098e-06 2.1823084e-06 3.165049e-06 2.9019402e-06
1.2142267e-06 2.2125528e-06 1.974355e-06 1.5831478e-06 2.627224e-06 2.170692e-06 2.6150553e-06 2.5630798e-06
1.7964029e-06 1.8923255e-06 2.3142484e-06 1.4278439e-06 1.5412305e-06 1.6965049e-06 1.6533754e-06 2.317773e-06
2.7030162e-06 1.8467208e-06 2.1444516e-06 1.4581975e-06 1.9911015e-06 1.5763915e-06 2.559923e-06 3.656597e-06
1.3743365e-06 1.5996642e-06 1.1622456e-06 1.173949e-06 2.2196648e-06 2.5556533e-06 1.3289302e-06 1.3008753e-06
2.1621233e-06 1.2906952e-06 2.8604288e-06 1.3037713e-06 1.5767793e-06 1.7514631e-06 4.088262e-06 2.7217332e-06
2.1064975e-06 1.0935385e-06 2.9390485e-06 2.4240853e-06 1.0332984e-06 1.6656356e-06 3.423645e-06 1.982913e-06
2.3735645e-06 1.4108655e-06 2.4261308e-06 3.0568638e-06 2.7486747e-06 1.7541131e-06 2.2736115e-06 3.3979509e-06
00000000: d457 2936 620b cc35 183f 2736 1b02 b935
00000010: bd7b ef35 9f4a 0336 7368 0336 ed51 d035
00000020: aeb6 fc35 5dec 0136 3923 ff35 f21d 0436
00000030: 6382 f735 effd d935 e4c7 fc35 1376 6c36
00000040: 444f 1136 886b 1636 1aa9 0836 e150 0236
00000050: 45a7 c035 f548 0536 5413 c335 1169 3336
00000060: 1925 dc35 2dad 3336 ece7 0736 a351 7b35
00000070: 5be3 b335 4808 4f36 f656 b935 ce40 1736
00000080: c57c 1936 b14c e235 48be 0b36 5429 0136
00000090: f8bb d735 24f6 0e36 1264 5f36 f084 ab35
000000a0: b4bc 4336 533e f435 be5e 2f36 b1e7 b835
000000b0: 8999 8b36 bd73 b935 8286 d235 cd5f f835
000000c0: 3555 cc35 ec77 7336 1742 4836 1ece df35
000000d0: 0dfa af35 9448 c836 33a5 db35 8f13 4c36
000000e0: 403e 1336 bf69 c935 f76e 0536 0429 b235
000000f0: 4611 2136 5993 0736 e85e c735 9123 0536
00000100: 08f2 4b36 4e25 0a36 19e3 2a36 bb49 f135
00000110: 9297 ea35 3250 1736 1dd7 d835 15fa 3436
00000120: 3ccf cb35 5ba6 f535 4caf 7a36 193c 1a36
00000130: 7f86 1636 45c3 2936 2546 9735 3e95 ed35
00000140: 5fd4 4336 2add 2136 d111 e035 9856 d535
00000150: 934a 0636 4227 1136 51a3 8b36 8e71 4d36
00000160: e8c1 de35 d033 1c36 2c70 6536 701f b235
00000170: bdd1 ff35 8125 ba35 ede9 1236 07c6 4336
00000180: 7f9c eb35 5d3c d035 8b9d 6036 c027 6236
00000190: 6d89 4636 7854 b435 8170 5e36 ef0c 2636
000001a0: 36ff d135 8d71 0936 ea2f e035 f47e 3e36
000001b0: 6ed5 cd35 6649 2a36 15d0 b535 c042 d435
000001c0: 9541 2036 1165 3d36 f383 6a36 35ac ea35
000001d0: 9511 0e36 4468 8f36 7450 2d36 6097 de35
000001e0: 6d4f 0036 93dc df35 4375 5c36 0778 0036
000001f0: 6a64 0a37 a6a5 8536 4aae 0236 6ea1 ba35
00000200: 3af2 1136 8438 0336 6e8c d035 0df5 db35
00000210: e22a 2036 e885 1336 edeb 2036 6329 1436
00000220: 82eb 2736 dda5 8436 1dd6 c335 0078 c535
00000230: 9e30 4d36 91c3 0436 52c4 2836 f0fb af35
00000240: 8eb6 2036 a8b2 bb35 e241 8d36 2730 f535
00000250: ad17 f535 38dc b835 fb95 ed35 d2d6 1f36
00000260: 90ba 9936 08bf d435 8f69 1436 9387 f235
00000270: 5d06 f635 2eeb dc35 ecde 0c36 2c74 e935
00000280: 389c e735 28b5 fa35 112f dd35 d256 f435
00000290: 71ee ee35 7d08 4636 b7b4 5136 4467 0936
000002a0: 0c24 0836 291b e035 bad9 f535 7d04 a635
000002b0: 046f 2c36 3399 7536 b3f5 6a36 3860 3336
000002c0: 1a09 9436 b3b2 cc35 7799 b035 4323 0836
000002d0: d99c 2f36 5c81 0436 eac7 7636 6866 e635
000002e0: 3d73 3036 0cad 4436 600c 0c36 7c96 0636
000002f0: b74b f735 a812 0636 cea3 0e36 c00f 7f36
00000300: f328 8f36 018a 5736 90a0 0036 e9a8 8a36
00000310: 8857 3936 c673 1236 2167 5436 f4be 4236
00000320: 83f8 a235 5e7b 1436 297f 0436 8b7c d435
00000330: 5d4f 3036 34ac 1136 4f7e 2f36 6001 2c36
00000340: ef1b f135 cffb fd35 7c4e 1b36 58a4 bf35
00000350: 47dc ce35 77b3 e335 8ce9 dd35 098b 1b36
00000360: 7765 3536 d8dc f735 66e9 0f36 49b7 c335
00000370: dd9e 0536 6694 d335 24cb 2b36 dc63 7536
00000380: d875 b835 0bb4 d635 74fe 9b35 9590 9d35
00000390: 8df5 1436 ca81 2b36 b25d b235 bc99 ae35
000003a0: ff18 1136 f33b ad35 cbf5 3f36 3efd ae35
000003b0: b9a1 d335 d013 eb35 e72d 8936 05a7 3636
000003c0: 5a5d 0d36 b2c5 9235 783c 4536 78ad 2236
000003d0: ddaf 8a35 ce8e df35 c6c1 6536 3012 0536
000003e0: 8749 1f36 f85c bd35 9cd0 2236 8524 4d36
000003f0: df75 3836 de6e eb35 5994 1836 5a08 6436

fs.spk_id_proj.weight f4 [1, 256]
-0.5160008 -0.22215582 0.3675237 0.27089426 0.39100695 -0.014034931 -0.14340635 0.5393279
-0.36995396 -0.5857377 -0.23319459 0.46351114 0.14670159 0.17395268 0.22545886 -0.1976204
-0.5216459 0.038765952 -0.36634535 -0.50001526 0.11194671 -0.19481291 0.9108096 -0.86227924
-0.24975918 -0.32513687 0.3643112 0.59977514 0.032143887 -0.06939916 0.38450634 -0.34805533
-0.0367967 -0.45757928 0.14737967 0.13286532 -0.34540758 0.2810831 0.04083892 0.38670525
-0.11770229 0.87954605 -0.18556981 0.48320293 0.11729194 0.6059874 0.19374621 0.074138194
-0.47915736 0.2504707 0.231145 0.014541556 0.7857096 -1.29164 0.26812753 -0.12233992
-0.10794317 0.31276622 0.38624343 -0.24245256 1.5095171 0.31453037 -0.17147315 0.40048137
-0.28410357 0.37465915 0.2660576 0.13055831 -0.10422168 0.14330363 0.0035845882 0.23424524
0.17026944 0.5594513 -0.5157598 -0.068470016 -0.4634056 0.77807516 -0.73090225 0.4101002
-0.28247958 -0.71711665 -0.17037117 -0.5433457 0.47671467 0.64774626 1.1480507 -1.4327093
-0.4109298 1.0069203 -0.19775116 -0.08951431 0.54961705 0.011898926 -0.107495725 0.4986684
-0.14143088 -0.10944029 0.3538813 -0.4602551 -0.19111887 0.1776073 -0.6847409 0.5798566
-0.14528678 -0.21599519 0.41343674 -0.33413032 -0.09583497 0.30996084 -0.71375245 0.12849684
-0.091998026 -0.37077895 -0.3157564 0.30184457 -0.1721963 -0.20336303 0.08508328 0.052808933
0.5648774 0.03607098 -0.035613876 0.06264058 0.23238619 0.37501994 -0.4464183 -0.086293824
-0.71923083 0.33081734 -0.3093966 -0.42595503 0.67225546 -0.29342458 -0.6428923 0.084617935
0.6038746 -0.2219662 -0.54131305 -0.30361477 -0.5010197 0.34786844 0.039353516 -0.006603346
0.046987243 -0.0010228667 -0.061516155 -0.44463092 0.6648188 0.24338403 0.386785 -0.48460504
0.024196124 -0.2803089 -0.3220109 -0.38973385 -1.2886 -0.6137444 -0.15217398 -0.37646076
0.16374862 -0.44672108 -0.899568 -0.0210222 0.6358192 -0.1947457 0.16118607 -0.6543071
-0.08064815 0.27268812 -0.12698083 -0.8897795 0.3317552 0.41961005 -0.114040315 -0.03180826
0.6159646 -0.32540628 0.7529607 -0.5236123 -0.7622725 0.2863882 0.0687148 0.3906298
-0.0948422 -0.5397931 -0.20527835 0.36275837 0.5923884 0.5181573 -0.26347438 0.50343215
-0.22212587 -0.47258413 -0.13772576 0.00052945386 -0.17025633 0.13823366 -0.67451525 0.6393433
0.7990163 -0.5028103 -0.037529863 0.24096227 0.39567372 -0.35844424 0.35377225 0.1326299
1.0887647 0.49951863 0.041989606 0.05189806 0.0009224877 -0.92579603 -0.02502518 -0.89600253
-0.021890802 0.2732939 0.18533002 -0.7155866 -0.28902397 -0.07544364 0.32066754 -0.38603568
-0.0736996 0.24167962 0.45554963 -0.3249179 -0.2971072 -0.029777387 -0.73459405 0.5357293
-0.38554144 0.23143357 0.22509935 0.333257 0.5949648 -0.61098444 0.20894781 0.4268858
1.0657903 -0.12466452 0.7220554 -0.0059556775 -0.2601222 -0.44887865 0.76604944 0.49633843
0.0071300836 0.7913804 0.43710795 0.40534538 0.543336 0.6063529 -0.03171847 -0.21436463
00000000: a118 04bf d17c 63be 112c bc3e a7b2 8a3e
00000010: 1032 c83e c4f2 65bc 1dd9 12be 6511 0a3f
00000020: 9b6a bdbe e8f2 15bf 90ca 6ebe 5551 ed3e
00000030: f138 163e a720 323e b0de 663e 015d 4abe
00000040: 968a 05bf 0cc9 1e3d 9e91 bbbe 0001 00bf
00000050: 5144 e53d 097d 47be d12a 693f 55be 5cbf
00000060: dfc0 7fbe 5778 a6be ff86 ba3e dd8a 193f
00000070: 4fa9 033d 2621 8ebd 04de c43e 4f34 b2be
00000080: 23b8 16bd d547 eabe b2ea 163e d90d 083e
00000090: 43d9 b0be 20ea 8f3e b646 273d 3bfe c53e
000000a0: e60d f1bd ee29 613f 0306 3ebe 6066 f73e
000000b0: c236 f03d fe21 1b3f 6865 463e c4d5 973d
000000c0: 1d54 f5be b23d 803e 46b1 6c3e b53f 6e3c
000000d0: 4424 493f 7654 a5bf 0348 893e 5a8d fabd
000000e0: 4f11 ddbd e522 a03e b3c1 c53e 7c45 78be
000000f0: db37 c13f 200a a13e a896 2fbe e50b cd3e
00000100: 0676 91be 53d3 bf3e b438 883e 14b1 053e
00000110: 2d72 d5bd 30be 123e 69eb 6a3b fcdd 6f3e
00000120: 1d5b 2e3e 3338 0f3f d608 04bf 023a 8cbd
00000130: 8043 edbe ef2f 473f 691c 3bbf a7f8 d13e
00000140: 2aa1 90be f594 37bf c875 2ebe b418 0bbf
00000150: f213 f43e b3d2 253f 53f3 923f 0563 b7bf
00000160: 6465 d2be c4e2 803f 487f 4abe 4753 b7bd
00000170: b4b3 0c3f b7f3 423c b826 dcbd 7751 ff3e
00000180: 42d3 10be 3b22 e0bd ee2f b53e 8ea6 ebbe
00000190: aab4 43be b0de 353e 2e4b 2fbf 7b71 143f
000001a0: 0fc6 14be d82d 5dbe fbad d33e 2113 abbe
000001b0: 2045 c4bd 30b3 9e3e 7bb8 36bf ad94 033e
000001c0: 7669 bcbd bdd6 bdbe d3aa a1be 5f8b 9a3e
000001d0: 3a54 30be 663e 50be 2540 ae3d 2e4e 583d
000001e0: ce9b 103f 2abf 133d dbdf 11bd b449 803d
000001f0: a5f6 6d3e 9d02 c03e f090 e4be d1ba b0bd
00000200: 831f 38bf e460 a93e 3b69 9ebe c716 dabe
00000210: ef18 2c3f bf3b 96be 9794 24bf 2b4c ad3d
00000220: 8797 1a3f 1c4b 63be 7e93 0abf 6573 9bbe
00000230: d442 00bf d01b b23e 2731 213d e260 d8bb
00000240: b275 403d b611 86ba 5df8 7bbd aaa6 e3be
00000250: 9131 2a3f aa39 793e af08 c63e 271e f8be
00000260: f336 c63c a684 8fbe 9dde a4be 328b c7be
00000270: d8f0 a4bf 5a1e 1dbf 7fd3 1bbe 77bf c0be
00000280: b8ad 273e a0b8 e4be 174a 66bf c036 acbc
00000290: 0cc5 223f 6b6b 47be f60d 253e ac80 27bf
000002a0: db2a a5bd c79d 8b3e 4307 02be 97c8 63bf
000002b0: d1db a93e 21d7 d63e f88d e9bd 6149 02bd
000002c0: dbaf 1d3f a79b a6be 08c2 403f 750b 06bf
000002d0: 4a24 43bf 79a1 923e 58ba 8c3d a100 c83e
000002e0: a13c c2bd e12f 0abf 7d34 52be 77bb b93e
000002f0: c4a6 173f f5a5 043f 1de6 86be eee0 003f
00000300: f774 63be 8cf6 f1be fb07 0dbe 0ccb 0a3a
00000310: ad57 2ebe 208d 0d3e 08ad 2cbf 01ac 233f
00000320: 558c 4c3f 2db8 00bf eab8 19bd d0be 763e
00000330: bf95 ca3e 0186 b7be a321 b53e 22d0 073e
00000340: a45c 8b3f e8c0 ff3e 4bfd 2b3d 0f93 543d
00000350: 1ad3 713a f800 6dbf 9b01 cdbc 6c60 65bf
00000360: 5754 b3bc 2eed 8b3e 27c7 3d3e af30 37bf
00000370: f3fa 93be 3282 9abd 892e a43e 78a6 c5be
00000380: d1ef 96bd dd7a 773e cd3d e93e a45b a6be
00000390: 6f1e 98be b5ef f3bc 5b0e 3cbf 8e25 093f
000003a0: b065 c5be ecfc 6c3e 7280 663e a9a0 aa3e
000003b0: 9d4f 183f 7a69 1cbf 6af6 553e c790 da3e
000003c0: d16b 883f 1d50 ffbd 9fd8 383f d827 c3bb
000003d0: bd2e 85be 6cd3 e5be d11b 443f 1220 fe3e
000003e0: 7aa3 e93b e897 4a3f 9dcc df3e 6e89 cf3e
000003f0: 1118 0b3f f239 1b3f 3aeb 01bd 6782 5bbe
