checkpoints/spec_denoiser/model_ckpt_steps_621250.ckpt (torch_old, 938554 bytes, 129 tensors)

exp_avg f4 [256]
000000 cb 14 7e b7 36 1d 9b 38 30 1e 17 b9 8b 2b 97 36
       -1.5144421e-05 7.396417e-05 -0.00014411728 4.5052197e-06
000010 09 4c 94 39 eb 1d 05 b9 e0 48 44 b9 5d 4e aa b9
       0.0002828541 -0.00012695014 -0.00018719165 -0.00032483312
000020 53 53 b0 39 a3 3e 67 37 d2 63 b6 b6 09 7e 33 b8
       0.00033631417 1.3783257e-05 -5.4356433e-06 -4.2794305e-05
000030 7a c2 3d b9 d6 52 63 b9 cb 53 68 38 2d 06 0b b9
       -0.00018096893 -0.00021679266 5.539115e-05 -0.00013258374
000040 19 11 3f b9 7c 67 36 b6 dc cc ac 38 80 af 10 b9
       -0.00018221549 -2.718035e-06 8.239757e-05 -0.00013798289
000050 4d 72 01 39 13 3c b0 37 8f ac 65 b7 44 43 a6 b8
       0.00012344979 2.100881e-05 -1.3689641e-05 -7.928026e-05
000060 81 b8 30 b9 f3 c1 da b8 8d ef 9d 38 8c 11 94 b7
       -0.00016853401 -0.00010431176 7.530963e-05 -1.7651146e-05
000070 8d 9e 38 39 e1 17 0a 39 63 8c 9e b8 48 2b 25 39
       0.00017606672 0.00013169601 -7.560176e-05 0.0001575175
000080 e3 9e 48 36 e3 9f 3f 38 9f 13 01 38 b8 72 37 39
       2.9894807e-06 4.5686855e-05 3.077427e-05 0.00017494976
000090 e7 4a 67 b9 18 0f 3a b8 66 00 53 39 7b 1d 91 b8
       -0.0002205778 -4.4359913e-05 0.00020122677 -6.91963e-05
0000a0 d1 5d 26 b9 ad e9 5e b9 ca 6e 49 b8 2b 24 43 b8
       -0.00015865943 -0.00021258621 -4.8025315e-05 -4.6525307e-05
0000b0 54 7b 97 b8 3b ad f5 38 de 5a 7b b8 60 7f 58 b9
       -7.223213e-05 0.00011714777 -5.992769e-05 -0.00020646816
0000c0 a5 9a 0f 39 16 ba 6f b9 e3 7c de b8 dc ac 45 39
       0.00013695152 -0.00022862139 -0.00010609047 0.00018851779
0000d0 19 96 8d b9 58 3a 13 39 66 a7 a7 b9 f0 c9 a0 39
       -0.00027005447 0.00014040747 -0.00031977444 0.00030668033
0000e0 82 8b b8 b8 e8 ef 10 b7 57 ee 75 b9 b4 fa a3 39
       -8.799789e-05 -8.638926e-06 -0.00023453809 0.0003127657
0000f0 fe f8 a6 b6 b5 77 8c 38 2e 3a 17 38 ec 32 9e b8
       -4.976172e-06 6.6980174e-05 3.605539e-05 -7.543512e-05
000100 89 85 45 b9 75 ae a4 b8 03 b3 b5 38 3b c7 77 b9
       -0.0001883713 -7.8526245e-05 8.664096e-05 -0.00023629975
000110 26 28 88 b9 14 14 39 b8 91 a3 23 b8 b9 39 3a b9
       -0.00025969854 -4.4126136e-05 -3.901456e-05 -0.00017759846
000120 75 27 a8 b8 05 90 b6 b8 c4 95 59 39 ff 01 5b b7
       -8.018214e-05 -8.705262e-05 0.00020750525 -1.3053882e-05
000130 c1 59 ba b8 cc f5 9b b7 61 27 9b 36 c7 15 e8 b7
       -8.885889e-05 -1.8591898e-05 4.6239443e-06 -2.7666696e-05
000140 83 fd c7 39 7b b9 bc b9 bf 19 45 39 6b d8 94 b7
       0.0003814512 -0.00035996348 0.00018796975 -1.7743752e-05
000150 6e a1 2b 36 b8 69 f4 b8 52 43 88 b8 3e 4c 5b b9
       2.557495e-06 -0.00011654518 -6.497525e-05 -0.0002091387
000160 98 45 fb 39 0c 1e 78 b8 93 67 d0 b8 53 63 46 37
       0.00047926302 -5.915579e-05 -9.937505e-05 1.1824845e-05
000170 bf 64 d8 b5 c0 d6 45 39 33 dd 01 b6 ab 0f ba b9
       -1.6122575e-06 0.00018867385 -1.9351253e-06 -0.00035488358
000180 82 cd d9 b9 20 60 10 ba 3c 96 6e b9 4f 26 1f 38
       -0.0004154258 -0.0005507488 -0.00022753415 3.794423e-05
000190 ea 43 5b 39 33 ab 70 b9 5f d2 8f 36 54 c9 64 b8
       0.00020910767 -0.0002295196 4.2862225e-06 -5.4546937e-05
0001a0 14 83 21 b8 61 ca 5d b6 a8 d6 55 39 94 ea a2 b7
       -3.8507467e-05 -3.3049366e-06 0.00020393229 -1.9421139e-05
0001b0 e6 d0 ec b7 d8 a9 a0 38 7e b2 a4 b9 ae 82 1a b8
       -2.8230668e-05 7.6610304e-05 -0.00031413505 -3.6838166e-05
0001c0 29 d9 cb b9 2d 00 cc b9 bc c5 35 b8 0b ac 99 b8
       -0.00038880974 -0.00038910043 -4.3337917e-05 -7.327654e-05
0001d0 8e f3 71 39 f5 c4 fc b9 9e 9a 1d b8 99 5c 1f b8
       0.00023074282 -0.0004821193 -3.7575715e-05 -3.7994792e-05
0001e0 be 7e 22 39 ca 48 db 38 f6 99 a3 b8 f8 a1 7c 39
       0.00015496739 0.00010456292 -7.801123e-05 0.00024092931
0001f0 7f 34 18 b8 7c c3 8e 37 a3 19 3f b9 40 4f dd b6
       -3.6288515e-05 1.7018749e-05 -0.0001822473 -6.595539e-06
000200 b9 b1 f5 b8 f6 1f 37 b9 70 59 0e b9 e3 43 01 b7
       -0.00011715614 -0.00017464146 -0.00013575493 -7.704805e-06
000210 e3 fa b8 38 bc 3a 8a b9 17 30 48 b9 0a 99 4d b9
       8.820535e-05 -0.00026365172 -0.00019091401 -0.00019607335
000220 59 1b 8c b8 63 59 38 39 dd e1 26 b7 da 3e af b9
       -6.680814e-05 0.00017580907 -9.946959e-06 -0.0003342543
000230 91 fd 1d 38 e2 fc 66 39 50 73 1c b9 dc 54 4b b9
       3.766787e-05 0.00022028715 -0.00014920277 -0.00019391201
000240 65 7d a1 b8 5d 9d 30 b7 fd 83 38 b8 69 50 ac b7
       -7.700435e-05 -1.05270565e-05 -4.3991942e-05 -2.0541442e-05
000250 df 7c 23 b9 47 3a 4e 36 4a 80 f9 38 b7 f0 1f 39
       -0.0001559141 3.0730314e-06 0.00011897141 0.00015253095
000260 02 97 01 b9 56 c5 cc 38 d3 63 77 b9 f1 1c eb b8
       -0.00012358653 9.764235e-05 -0.00023592943 -0.00011211064
000270 ea 4f bd 37 0f 81 56 b8 f4 6c b4 b7 c5 fc a0 37
       2.2567769e-05 -5.114177e-05 -2.1508407e-05 1.9191191e-05
000280 d0 01 34 39 01 f4 2d b9 e3 0a 08 b9 f6 a7 65 b8
       0.00017166813 -0.00016589464 -0.00012974026 -5.475428e-05
000290 35 85 36 b8 53 eb 6b 39 44 79 6e b9 fe b9 7b b7
       -4.351624e-05 0.00022499012 -0.00022742624 -1.50040705e-05
0002a0 71 b2 a2 b8 0c cf 09 39 db f9 de 38 2d e1 79 39
       -7.757999e-05 0.00013142469 0.00010632324 0.00023830375
0002b0 c2 20 8d 39 56 2e bc b9 43 75 75 b8 e2 05 54 b9
       0.00026918022 -0.00035892677 -5.852176e-05 -0.00020220087
0002c0 87 e5 0d b9 03 18 5c 37 2e bf 0d b8 c7 d4 cf 37
       -0.00013532313 1.31186125e-05 -3.379507e-05 2.4775405e-05
0002d0 5c 2d 6d b9 77 53 83 39 df 62 c3 b9 c2 43 86 38
       -0.00022618979 0.00025048453 -0.00037266963 6.402239e-05
0002e0 36 4e 57 37 a3 28 05 b8 14 13 d1 38 4b 90 2d b9
       1.28332085e-05 -3.1747517e-05 9.96945e-05 -0.00016552319
0002f0 47 86 8b b8 38 b4 a0 b8 3a 48 23 b9 11 07 fc 38
       -6.6530476e-05 -7.662963e-05 -0.00015571798 0.000120176126
000300 37 ba b8 b8 d3 6a ac b8 0a 2c 64 b9 d1 2f 5f b7
       -8.808489e-05 -8.221497e-05 -0.0002176018 -1.3302969e-05
000310 63 6c f4 b9 90 ad 91 b9 0d ae 13 b8 98 1a c1 b9
       -0.0004662006 -0.0002778587 -3.520963e-05 -0.00036831643
000320 7c b5 84 b7 a2 67 f1 b7 39 01 01 39 fc 68 20 37
       -1.5820136e-05 -2.8777697e-05 0.00012302854 9.561187e-06
000330 f6 5f 22 39 4c 9a 33 b9 0f 78 18 b9 5c 75 2c b9
       0.00015485272 -0.0001712825 -0.00014540575 -0.00016446918
000340 48 ed c0 b8 6a dd f3 b8 7d 7e 49 b9 b9 c6 4a 37
       -9.1994705e-05 -0.000116283845 -0.00019215974 1.2086407e-05
000350 ac 5e 0b 38 dc cf 44 36 fd e9 48 39 80 b6 7b b8
       3.3228353e-05 2.9327266e-06 0.00019160654 -6.001303e-05
000360 5b 67 c1 38 ee ee 92 b9 89 ce e0 b7 57 98 3d 39
       9.2222086e-05 -0.00028025307 -2.6799056e-05 0.00018081196
000370 44 98 5a 38 b0 77 67 38 30 d1 3c b8 23 0b c1 39
       5.211706e-05 5.518616e-05 -4.5017514e-05 0.00036820126
000380 61 0e 22 38 26 57 8d 39 60 87 68 b7 da 81 f3 38
       3.86372e-05 0.00026958546 -1.3859797e-05 0.0001161133
000390 f5 40 13 39 d3 d6 f0 b8 f0 c4 65 38 ee d6 9e 39
       0.00014043211 -0.00011484106 5.4781267e-05 0.00030296243
0003a0 fd 8e 1e b8 c1 ad 13 b9 35 97 68 b8 c6 a9 2f 38
       -3.7803304e-05 -0.00014083741 -5.5453933e-05 4.1881365e-05
0003b0 f8 78 8a 38 f6 f8 8e 39 66 93 77 39 d5 da 8c 38
       6.602885e-05 0.0002726984 0.00023610666 6.716481e-05
0003c0 19 e0 89 39 b2 37 70 b8 a8 a9 67 b9 48 74 48 b9
       0.00026297642 -5.727233e-05 -0.00022093079 -0.00019116804
0003d0 91 a8 e0 b7 71 bd 0a b9 7f 8f ec b7 78 26 95 b9
       -2.6781376e-05 -0.00013231278 -2.8200213e-05 -0.00028448156
0003e0 70 d9 ca b8 62 ad 9a 38 6f 3a 96 38 cd f0 4b b9
       -9.6726115e-05 7.375587e-05 7.1634415e-05 -0.00019449294
0003f0 9b 5b bc 37 7e 09 1a 39 4d 2a e1 38 09 24 82 38
       2.2454004e-05 0.0001469012 0.00010736715 6.205595e-05

exp_avg_sq f4 [256]
000000 5f 83 86 34 5e ac 38 35 06 95 13 35 e9 25 be 34
       2.505503e-07 6.879617e-07 5.4978625e-07 3.541784e-07
000010 99 9b 21 35 5d b0 df 34 9a 6c 9c 34 43 8a bc 34
       6.02036e-07 4.1665308e-07 2.9136282e-07 3.5118327e-07
000020 d4 e9 21 36 85 07 fb 34 59 cf c1 34 34 af 7f 34
       2.4126975e-06 4.6757864e-07 3.6099917e-07 2.3812464e-07
000030 ab b5 81 35 38 0b f5 34 47 63 1c 35 c4 59 00 35
       9.664121e-07 4.564297e-07 5.8258996e-07 4.781434e-07
000040 ac d6 d8 34 cb de 3e 34 e2 60 0a 35 82 f9 8a 35
       4.038933e-07 1.777618e-07 5.154999e-07 1.0354418e-06
000050 70 0c 22 35 14 c0 a4 34 b0 85 9b 34 70 b5 dd 34
       6.03678e-07 3.0687136e-07 2.896827e-07 4.129647e-07
000060 2c d1 e7 34 38 43 39 35 77 fd 94 34 78 6a bd 34
       4.3179296e-07 6.9015687e-07 2.7751568e-07 3.528146e-07
000070 a6 fe 07 35 24 b9 06 35 bd 0c ec 34 3d 55 a1 34
       5.066198e-07 5.0188305e-07 4.3967694e-07 3.0050606e-07
000080 90 22 26 35 05 9b e6 34 8e 69 1e 35 52 96 99 34
       6.1890114e-07 4.295363e-07 5.901319e-07 2.8607843e-07
000090 fb 5b 69 34 1b fc 7a 34 8c 48 0c 35 a7 06 20 35
       2.1733278e-07 2.337478e-07 5.2259634e-07 5.9614325e-07
0000a0 d6 f2 d3 35 eb 76 ae 34 17 ff 4c 34 af c4 b1 34
       1.57914e-06 3.249655e-07 1.9091782e-07 3.3111925e-07
0000b0 8e ba e6 34 ad fc b2 34 76 15 c2 34 fa ba a9 34
       4.2976575e-07 3.333893e-07 3.615093e-07 3.1614746e-07
0000c0 12 a1 bd 34 8b eb 2b 35 7c ee 64 34 a7 d0 a2 34
       3.5321187e-07 6.4045224e-07 2.1320915e-07 3.0326666e-07
0000d0 5f e6 6d 35 12 33 94 34 e1 10 31 35 b7 37 06 35
       8.8624614e-07 2.7604307e-07 6.59622e-07 4.9999966e-07
0000e0 4e 78 ca 35 5a 84 f3 34 31 03 de 34 ca 0e 8a 35
       1.5085186e-06 4.5358576e-07 4.1353044e-07 1.0286105e-06
0000f0 f8 c0 5a 34 66 fc 28 35 78 89 29 34 9c db a1 34
       2.0373034e-07 6.2952165e-07 1.5789362e-07 3.0148374e-07
000100 c5 72 9e 34 a8 83 ba 35 05 83 12 35 8d 6f b9 35
       2.95133e-07 1.3896397e-06 5.4579897e-07 1.381604e-06
000110 60 3a c5 35 f1 36 c0 34 f5 bc ab 34 3e 7b 7f 34
       1.4694633e-06 3.5802762e-07 3.1988716e-07 2.3793561e-07
000120 9f 62 6a 35 48 9d ca 34 a6 ec 34 35 d2 27 d9 34
       8.7315306e-07 3.773987e-07 6.7399594e-07 4.0448373e-07
000130 b5 8e ec 34 75 6f 00 35 b0 a1 ec 34 08 66 99 34
       4.4062259e-07 4.7845907e-07 4.407607e-07 2.8572708e-07
000140 3a 86 0d 35 3d 1e c6 34 4b 5d c9 34 21 91 50 35
       5.272192e-07 3.6902375e-07 3.7507047e-07 7.769723e-07
000150 3a 86 f1 34 d2 7a 93 34 4d 61 95 34 b9 61 39 35
       4.498741e-07 2.7470247e-07 2.7824208e-07 6.9060076e-07
000160 2a ff 2a 36 bf df 21 34 00 38 47 35 f1 a1 b7 34
       2.54805e-06 1.5075692e-07 7.421477e-07 3.4204234e-07
000170 86 e9 41 35 6e b3 7a 35 f5 1f 83 34 7f be 89 35
       7.2237924e-07 9.339336e-07 2.4423903e-07 1.0262737e-06
000180 ae de 31 35 45 95 33 35 1d 24 6a 34 f1 e8 2b 34
       6.626168e-07 6.689991e-07 2.1806086e-07 1.601036e-07
000190 b8 0d 11 36 d7 b6 1f 35 cd 84 ce 34 41 37 8e 34
       2.161467e-06 5.949818e-07 3.8467115e-07 2.6489764e-07
0001a0 37 19 41 35 65 00 e9 34 a8 ea 94 35 f7 87 0c 35
       7.1934795e-07 4.339992e-07 1.1095153e-06 5.235192e-07
0001b0 29 42 94 34 d3 43 9d 34 3b 18 0f 35 c0 0f f4 34
       2.7615286e-07 2.9292877e-07 5.330691e-07 4.546e-07
0001c0 2c 49 4b 35 89 2c c6 34 75 6a 19 35 ad a0 d8 34
       7.572987e-07 3.6912778e-07 5.7151857e-07 4.0350042e-07
0001d0 0c 5b 01 36 76 1a 66 36 fc 60 82 34 55 bd 39 35
       1.9275494e-06 3.4288073e-06 2.4284952e-07 6.9193385e-07
0001e0 6d f6 02 35 69 a2 cc 34 40 be 01 35 12 e6 15 35
       4.878737e-07 3.811613e-07 4.8333095e-07 5.584162e-07
0001f0 a4 cf fb 34 1e 80 3b 34 48 9f ca 34 2d 42 7e 35
       4.6903472e-07 1.7462341e-07 3.7741324e-07 9.471867e-07
000200 55 51 d6 34 8a 2d d4 34 61 31 bb 34 2f 92 a4 34
       3.9919783e-07 3.952121e-07 3.4867392e-07 3.0653743e-07
000210 ff 08 ea 34 75 8f a8 35 8f 1a 33 35 d8 8f 14 35
       4.3592442e-07 1.2558727e-06 6.6721344e-07 5.5343617e-07
000220 88 df 09 35 16 a9 31 35 a1 a3 0a 35 cb 4b e8 34
       5.136176e-07 6.618369e-07 5.164712e-07 4.3268514e-07
000230 c8 43 b5 34 68 21 d1 35 4f a2 05 35 bb d3 b4 34
       3.3763195e-07 1.5581436e-06 4.978255e-07 3.3681667e-07
000240 2c 5b 21 34 fc 42 e8 34 4e 23 e4 35 8d 38 6f 34
       1.5027462e-07 4.3262105e-07 1.6997599e-06 2.2279183e-07
000250 35 97 af 34 c4 dc 0d 35 64 f5 85 34 06 90 c5 34
       3.2706308e-07 5.284785e-07 2.4951726e-07 3.67989e-07
000260 9b 91 0e 35 b6 a0 b8 34 e6 d5 4b 35 45 e5 e0 34
       5.3111006e-07 3.4389603e-07 7.5934656e-07 4.1890067e-07
000270 54 1a 5c 35 b1 34 a0 34 4f 2a a4 34 ec 50 88 34
       8.19947e-07 2.984066e-07 3.0578164e-07 2.5390852e-07
000280 8c 2f f9 34 7b 09 9b 34 5a 8a 93 34 89 e1 0e 35
       4.641446e-07 2.8877898e-07 2.7481548e-07 5.322732e-07
000290 db 5c 11 35 48 9c f5 34 3a 87 4a 35 dc bd 34 35
       5.415183e-07 4.5748516e-07 7.5447645e-07 6.7331507e-07
0002a0 74 74 71 34 a0 e2 bc 34 c5 47 b9 34 da 7a a5 34
       2.248724e-07 3.518262e-07 3.4511154e-07 3.082303e-07
0002b0 e3 12 4e 35 08 00 04 35 08 d8 94 34 b0 14 b4 34
       7.6768464e-07 4.917388e-07 2.7724332e-07 3.3542665e-07
0002c0 a0 d4 af 34 a6 73 16 35 2f a2 60 35 23 2b d2 34
       3.2750995e-07 5.6047645e-07 8.368251e-07 3.9146934e-07
0002d0 e4 e8 c8 34 55 4e 67 35 a7 79 3c 35 81 05 12 35
       3.7422353e-07 8.6168194e-07 7.0212485e-07 5.439725e-07
0002e0 aa 8f bc 34 c5 99 99 34 04 62 60 34 e5 9f ac 34
       3.5122258e-07 2.8610353e-07 2.0897284e-07 3.2153835e-07
0002f0 de 5e b0 34 36 6f d1 34 51 27 eb 34 84 76 64 35
       3.285158e-07 3.90102e-07 4.3800767e-07 8.510908e-07
000300 a8 3b 08 35 2d 64 2b 35 35 12 7d 34 6d 1f 4e 35
       5.075076e-07 6.384824e-07 2.3569085e-07 7.678671e-07
000310 b5 f8 7a 36 b6 d1 e4 34 6a 92 ba 34 07 61 a7 36
       3.739767e-06 4.2620894e-07 3.475173e-07 4.9882833e-06
000320 77 fe bb 34 cd 47 5d 35 54 9c 42 34 2f 1b e0 34
       3.5016612e-07 8.24334e-07 1.812453e-07 4.174303e-07
000330 13 13 cc 34 5e bc 89 35 5a 38 f6 34 1a 66 f3 34
       3.801184e-07 1.0262117e-06 4.5862072e-07 4.5336566e-07
000340 3c 07 ef 34 ff bb a2 34 43 d0 99 34 35 0e a1 34
       4.4522483e-07 3.0311637e-07 2.865e-07 2.9998924e-07
000350 3d b0 c3 34 90 ed 13 35 c1 3d be 34 54 4c 7f 35
       3.644981e-07 5.5107466e-07 3.543519e-07 9.5105975e-07
000360 b6 75 87 34 e8 16 ff 34 26 38 3a 34 73 20 c3 34
       2.5231355e-07 4.7514118e-07 1.7343027e-07 3.634519e-07
000370 44 66 9d 34 73 31 9a 34 93 e5 a1 34 7c 62 c3 34
       2.9317937e-07 2.8720714e-07 3.0155624e-07 3.6393237e-07
000380 0d 1c b5 34 c1 b3 63 35 79 67 f3 34 4f 61 0d 35
       3.3734287e-07 8.4825666e-07 4.5337563e-07 5.2668196e-07
000390 b3 6d e9 34 c8 d3 d7 34 8f 45 d5 34 1e d0 f7 34
       4.347945e-07 4.0200962e-07 3.9724952e-07 4.615876e-07
0003a0 a3 aa 89 34 a3 c3 b6 34 78 7e d1 34 47 08 6d 34
       2.5642393e-07 3.4042486e-07 3.9021302e-07 2.2075356e-07
0003b0 bf 84 9e 35 52 08 71 35 e7 34 df 34 55 2d 6f 34
       1.1810552e-06 8.9791604e-07 4.1575478e-07 2.2275101e-07
0003c0 c4 f2 32 35 48 4b 14 35 3a 6c 07 36 36 99 af 34
       6.666344e-07 5.5243845e-07 2.0179564e-06 3.2707766e-07
0003d0 cc bc a6 34 db 50 9a 34 8c bd bb 34 43 c9 91 34
       3.1057277e-07 2.8743565e-07 3.4969378e-07 2.7154792e-07
0003e0 49 4c 51 34 a6 d9 d3 34 c7 b7 a3 34 d6 fe 15 35
       1.9492394e-07 3.9460173e-07 3.0494832e-07 5.587766e-07
0003f0 7d 6e 46 35 fa a0 b2 34 6a f1 60 35 6c fa e2 34
       7.392153e-07 3.327221e-07 8.3797806e-07 4.2277986e-07

exp_avg f4 [256]
000000 d8 5b bd 39 a1 6b 84 39 6d 6b f8 38 f8 61 4d b9
       0.00036117318 0.00025257192 0.00011845571 -0.0001958682
000010 5d 5b 82 39 d1 ca 73 b6 58 a2 bf b8 71 4e 0e b9
       0.00024863603 -3.6327876e-06 -9.1378286e-05 -0.00013571397
000020 df 64 89 38 a1 d7 00 39 26 df 4b b9 39 5b df b8
       6.551458e-05 0.0001228736 -0.00019442718 -0.0001065046
000030 53 6a 90 39 f6 83 83 b9 b6 dc 2d b9 ca 2a 41 38
       0.00027545038 -0.00025084586 -0.00016580787 4.6054636e-05
000040 b9 7e a1 b6 fd e0 6a 38 4f 28 88 38 da 60 e4 38
       -4.8129264e-06 5.5999484e-05 6.4924934e-05 0.00010889927
000050 6c cc 60 39 f3 ae 6d b8 5f eb 49 38 95 dd b0 39
       0.00021438458 -5.6668137e-05 4.814134e-05 0.00033734427
000060 6d f8 d6 b6 83 81 75 b8 98 cf 3d b8 e2 26 94 38
       -6.4066176e-06 -5.853317e-05 -4.525445e-05 7.0644324e-05
000070 2a 37 b3 b7 58 23 cc b8 7c 99 8e b9 10 00 51 b8
       -2.136415e-05 -9.734061e-05 -0.00027198705 -4.982954e-05
000080 46 a2 85 b7 b8 a7 7e b8 47 6f 2a b9 43 9a 50 36
       -1.59304e-05 -6.071452e-05 -0.00016253917 3.1084207e-06
000090 98 17 43 b9 9e 00 44 b8 81 95 d0 38 47 cf 2c 39
       -0.00018605439 -4.6730616e-05 9.94606e-05 0.00016480415
0000a0 05 53 d4 b8 c7 f7 94 b8 1a d3 6c 38 f8 50 04 b9
       -0.00010124411 -7.103342e-05 5.646339e-05 -0.00012618664
0000b0 77 60 a4 b8 60 62 72 b8 ef 84 91 38 27 d9 e8 b8
       -7.8380974e-05 -5.7788915e-05 6.9388996e-05 -0.0001110307
0000c0 a2 58 05 b8 79 d6 e8 38 64 69 05 b8 dc df 2e b9
       -3.1792217e-05 0.00011102571 -3.1807824e-05 -0.00016677327
0000d0 71 d0 d6 38 06 6f bc 38 83 d7 fa b8 0b 1d 46 39
       0.000102431404 8.985218e-05 -0.00011961071 0.00018893571
0000e0 da 76 09 39 bf 25 a2 b9 ab 1f 06 38 fb 8a 1d 39
       0.00013109614 -0.0003092717 3.1977583e-05 0.00015024461
0000f0 f2 d3 87 b8 77 df a6 39 1a 88 26 b9 9c 7c 43 b8
       -6.4767795e-05 0.00031828482 -0.00015881695 -4.6607674e-05
000100 14 1a 0c 39 98 6b 06 38 c0 4a 86 b8 1d d8 09 39
       0.00013361155 3.2048294e-05 -6.403541e-05 0.00013145847
000110 0f f3 a5 b9 80 6b 6f 39 e2 20 69 38 32 13 d6 b9
       -0.00031652345 0.00022832863 5.5582153e-05 -0.00040831562
000120 3d 56 90 b9 01 65 59 b8 14 55 c6 b8 56 01 12 b9
       -0.00027530073 -5.18309e-05 -9.457223e-05 -0.00013924143
000130 94 de a4 39 b4 33 31 b9 89 19 a1 b9 0b 8f 9e 38
       0.0003144635 -0.00016899296 -0.00030727338 7.560671e-05
000140 12 5e c4 39 39 5a 82 39 df ab 52 39 d1 63 ad 37
       0.0003745412 0.00024862753 0.00020091188 2.0669688e-05
000150 c5 52 47 b9 da 25 1b b9 71 58 08 38 43 8a 3c 39
       -0.00019008953 -0.00014796053 3.2507294e-05 0.00017980584
000160 4e 51 6d 37 b7 3f 43 38 f9 91 4f 39 20 e9 73 b9
       1.4145231e-05 4.6550962e-05 0.00019795437 -0.00023261132
000170 ff 9e 44 39 56 31 06 b9 28 c2 39 39 f3 6a 9a 38
       0.00018751247 -0.00012797615 0.00017715304 7.363213e-05
000180 55 5b a1 38 85 6a 03 39 ac e3 4a 39 7b e5 44 b9
       7.69409e-05 0.00012532815 0.00019349036 -0.00018777505
000190 7c 9b 2e b9 58 03 28 38 5a 72 e1 b7 cf 46 cf 38
       -0.00016651856 4.0057435e-05 -2.687534e-05 9.883718e-05
0001a0 95 e5 96 38 6d 85 a4 36 2f 3d 82 b8 ba e5 ef b8
       7.19532e-05 4.9031137e-06 -6.2102794e-05 -0.00011439198
0001b0 69 85 85 b7 61 c9 9c 38 9f 61 71 b9 a4 1a 93 b8
       -1.591696e-05 7.4761694e-05 -0.00023019918 -7.0144684e-05
0001c0 70 86 ac 39 fc 2a 94 39 6e a8 c5 b9 9f af 51 b9
       0.0003290656 0.00028260786 -0.00037700258 -0.00019997217
0001d0 1a 09 03 37 a7 e8 83 39 49 4e 15 38 e7 c3 76 37
       7.810328e-06 0.00025159607 3.5597277e-05 1.4708355e-05
0001e0 18 48 13 38 b9 9a 74 39 20 78 db b8 d3 77 c8 39
       3.5114674e-05 0.00023327292 -0.00010465109 0.0003823625
0001f0 ff 9e 31 39 6f 3b 69 39 90 3e 81 39 c9 80 27 b9
       0.00016939266 0.00022242752 0.0002465141 -0.00015974337
000200 d4 ec 06 39 6f 11 d1 b8 88 d2 8b b9 53 c5 1c b9
       0.00012867461 -9.969144e-05 -0.00026669004 -0.00014950828
000210 23 8c 88 b9 81 d8 86 b9 e2 28 5c 38 31 b1 fd b8
       -0.0002604435 -0.0002571978 5.2490162e-05 -0.000120969846
000220 1b ab 6b 39 f6 47 22 39 94 83 7b b9 68 f9 93 b9
       0.00022475088 0.00015476331 -0.00023986242 -0.00028223847
000230 ed 35 3a b9 79 05 4c b9 1a 42 de 38 2e a6 b8 b8
       -0.00017758431 -0.00019456995 0.00010598097 -8.804757e-05
000240 a5 ea 67 b9 88 fb 54 39 e4 e9 50 39 82 4f b1 38
       -0.00022117289 0.00020311598 0.00019923557 8.454827e-05
000250 19 4d ac 38 2f e9 05 b9 72 93 84 b9 b0 89 f0 37
       8.21596e-05 -0.00012770736 -0.00025286857 2.8674345e-05
000260 70 1f c0 b9 eb 99 df b8 73 98 29 b9 73 6d 53 38
       -0.00036644517 -0.00010662138 -0.00016173888 5.0408253e-05
000270 68 29 1d 39 08 53 c3 38 07 f7 56 37 6a ae 22 b9
       0.00014988112 9.31379e-05 1.28129095e-05 -0.00015514498
000280 32 4e f6 38 bb f3 91 38 06 f1 5b b9 e6 f8 4c b8
       0.00011744759 6.959537e-05 -0.00020975256 -4.8869195e-05
000290 3c 0f a5 38 ca 3e 8f b9 cf 0a 9e b8 9b 03 1a b9
       7.870651e-05 -0.00027321867 -7.53604e-05 -0.00014687928
0002a0 60 53 93 b8 d4 1c 18 37 c4 e4 c6 b8 80 b9 5c 39
       -7.025036e-05 9.066618e-06 -9.483987e-05 0.00021049939
0002b0 56 87 e2 b8 2d d0 ba b8 77 48 74 b8 35 62 88 39
       -0.00010801728 -8.907947e-05 -5.824162e-05 0.0002601311
0002c0 00 f4 60 38 cb 03 3d b9 45 c6 2f 39 1d b4 4e 39
       5.3633004e-05 -0.00018025858 0.00016763162 0.00019712788
0002d0 da 5f 62 38 5f b0 84 39 19 d1 48 38 4f 51 96 b9
       5.3971868e-05 0.0002530841 4.7878453e-05 -0.0002867081
0002e0 27 69 e8 b8 6e 49 85 38 bb 1e 17 37 05 18 d6 38
       -0.00011082208 6.3556115e-05 9.007456e-06 0.00010208789
0002f0 af 38 3a 38 3f b7 81 b8 88 30 66 39 65 15 a6 37
       4.4398646e-05 -6.1853316e-05 0.00021952589 1.9798705e-05
000300 ca e3 71 b8 67 e6 5f 39 f3 f9 d9 38 7a cf da 38
       -5.7671023e-05 0.00021352769 0.00010393923 0.000104336956
000310 27 1c 5c b9 e3 0c af 38 5c e6 e6 38 5d 3b 90 38
       -0.00020991323 8.3470506e-05 0.000110101624 6.877512e-05
000320 f4 01 03 b9 78 cc 0b 39 6d 4f a4 38 6c c9 b0 36
       -0.00012493861 0.00013332244 7.8349236e-05 5.2686573e-06
000330 81 64 31 38 14 55 62 38 a0 34 81 38 5a e2 7f 36
       4.229369e-05 5.3961834e-05 6.1610015e-05 3.8129715e-06
000340 d4 46 c5 38 9d 2f 4c 39 6d 76 89 39 24 28 c3 38
       9.406885e-05 0.00019472693 0.0002621891 9.305801e-05
000350 2f ff 07 b9 1e e9 22 37 5f 01 e2 39 47 89 a3 b8
       -0.00012969667 9.710229e-06 0.000431071 -7.7980156e-05
000360 46 67 85 37 6f a8 fd b8 0a 4f 6b 39 f8 fc 03 b9
       1.5902926e-05 -0.00012095353 0.00022440791 -0.00012587372
000370 31 55 03 39 dd 2d 53 38 7a 5d 2c 39 b3 a7 96 39
       0.0001252487 5.0349034e-05 0.00016438021 0.00028735175
000380 91 3a 13 39 72 f4 35 b9 6d 33 35 b8 21 fe 48 b9
       0.0001404083 -0.00017352568 -4.3201657e-05 -0.00019168157
000390 cc 75 ea b8 5e f9 8d b8 70 1a 51 39 21 2d d8 b6
       -0.00011179931 -6.769852e-05 0.00019941642 -6.4425553e-06
0003a0 40 e9 be 38 47 e7 28 b7 55 a6 59 b8 10 e3 bc b8
       9.103352e-05 -1.0067429e-05 -5.189174e-05 -9.006832e-05
0003b0 f8 e3 18 b9 d6 75 5d b9 6b 48 71 39 e6 5a 65 37
       -0.00014580775 -0.000211201 0.00023010529 1.3670628e-05
0003c0 70 b5 14 b9 32 e8 e8 b8 17 81 cc b8 64 ce 8c b9
       -0.0001418197 -0.00011105872 -9.751523e-05 -0.00026856654
0003d0 ad 10 06 39 1e ee 3c b9 61 b6 33 38 49 b4 e5 b8
       0.00012785448 -0.00018017783 4.284678e-05 -0.00010953152
0003e0 19 d4 e4 b9 f5 7e 61 b9 2e 4f 38 39 d9 52 40 b7
       -0.00043645574 -0.00021504967 0.00017577104 -1.1463381e-05
0003f0 8b 6e 6a b8 3e f2 07 39 aa f7 aa b8 35 c3 cd b6
       -5.58929e-05 0.00012964846 -8.152363e-05 -6.132201e-06

exp_avg_sq f4 [256]
000000 5b 09 01 36 f9 98 64 35 8b f3 1c 35 de 07 c2 35
       1.9227944e-06 8.5159223e-07 5.846893e-07 1.4456416e-06
000010 23 16 00 36 94 e6 d8 34 82 44 1a 35 42 7e bb 34
       1.9086372e-06 4.0400903e-07 5.746916e-07 3.492333e-07
000020 f0 eb 2e 35 3b 0e 50 35 1e 0b 84 35 4b 61 a8 35
       6.5163385e-07 7.7506746e-07 9.838002e-07 1.2545291e-06
000030 46 05 c9 35 14 5f 97 35 b3 a4 11 35 eb d7 ce 35
       1.4977202e-06 1.1278048e-06 5.425638e-07 1.5411036e-06
000040 d2 d9 2a 35 e3 0d 48 35 47 74 eb 35 f8 ff c2 34
       6.3646905e-07 7.4526014e-07 1.7542706e-06 3.6321558e-07
000050 93 a4 d8 35 bf 97 10 35 15 ed f3 34 18 e8 c3 35
       1.6141151e-06 5.3865e-07 4.5434777e-07 1.459618e-06
000060 6f f7 5f 35 12 db 57 35 72 4c 41 35 a8 2f cf 34
       8.3434037e-07 8.041253e-07 7.2009345e-07 3.859143e-07
000070 57 45 4b 35 e0 5c 0a 35 3e 2a 98 35 3b d6 0b 35
       7.5724296e-07 5.1544157e-07 1.1337177e-06 5.209328e-07
000080 6f 8d 5d 35 09 9a f2 35 6e ed 06 35 7e 7b 3e 35
       8.253473e-07 1.8075235e-06 5.0264396e-07 7.096022e-07
000090 bd de b3 35 fc d5 0f 35 8b ac b2 35 a8 d4 c7 34
       1.3401365e-06 5.358304e-07 1.331225e-06 3.7221366e-07
0000a0 98 9e 8d 35 cb d1 d8 34 44 c1 1b 35 66 14 99 35
       1.0551475e-06 4.038578e-07 5.802324e-07 1.1405325e-06
0000b0 41 2f 20 35 1d d2 1a 35 1d 14 78 35 b4 47 3a 35
       5.967341e-07 5.7675226e-07 9.241647e-07 6.939474e-07
0000c0 43 8f 25 35 ec 44 8e 35 c8 1b 04 35 08 f8 95 35
       6.1675763e-07 1.0599883e-06 4.921426e-07 1.1173552e-06
0000d0 d4 22 88 35 6e 63 e5 34 2c f7 3d 35 08 44 4c 35
       1.0142926e-06 4.2726919e-07 7.076767e-07 7.609492e-07
0000e0 b5 ab 69 35 70 42 1b 36 aa c0 71 34 e2 49 7f 35
       8.704913e-07 2.3135472e-06 2.2514965e-07 9.5102416e-07
0000f0 a4 41 36 35 00 b4 f8 35 76 aa fd 34 a2 25 1b 35
       6.7895803e-07 1.8529827e-06 4.724895e-07 5.779676e-07
000100 85 58 96 35 2a f4 e7 35 7e 6e 94 35 41 b2 2b 35
       1.1201633e-06 1.7281902e-06 1.1059017e-06 6.396186e-07
000110 3a 11 50 35 ad 85 26 35 f2 bc a5 35 ad 8b 70 35
       7.7511106e-07 6.203434e-07 1.2348448e-06 8.961022e-07
000120 c5 5e 14 36 88 61 33 35 5c ac 2b 35 b0 fd 56 35
       2.2108882e-06 6.6824623e-07 6.395328e-07 8.0090376e-07
000130 42 5f 94 35 b7 4e ee 34 f7 7e 87 35 39 73 8b 35
       1.1054583e-06 4.4388227e-07 1.0095235e-06 1.0389841e-06
000140 46 04 32 36 46 54 8a 35 12 83 80 35 31 40 9b 35
       2.6526554e-06 1.0306328e-06 9.57489e-07 1.1567082e-06
000150 fd 40 c5 35 c4 a6 8a 35 db e4 bb 34 50 96 23 35
       1.4696558e-06 1.0330336e-06 3.4997979e-07 6.0940965e-07
000160 19 42 9d 35 e8 d1 30 35 80 b3 8e 35 f3 12 94 35
       1.1716648e-06 6.5870563e-07 1.0632066e-06 1.1032374e-06
000170 dc 58 1e 36 38 0d e4 34 12 e7 7d 35 cf c4 44 35
       2.3595558e-06 4.2477927e-07 9.4586096e-07 7.3302084e-07
000180 5d 25 21 35 94 d1 66 35 2e f7 3a 35 36 38 80 35
       6.0031545e-07 8.5986653e-07 6.9650093e-07 9.553103e-07
000190 f2 1c 42 36 9c 96 a0 35 53 d1 30 35 63 0d 92 35
       2.89251e-06 1.1964762e-06 6.5869716e-07 1.0881744e-06
0001a0 ce a0 e1 34 25 5f fc 34 21 9f 1d 35 a3 5f 09 35
       4.2026517e-07 4.7007885e-07 5.871862e-07 5.1175647e-07
0001b0 5f 2e a1 34 00 87 88 35 7b 69 01 36 96 25 7b 35
       3.0022326e-07 1.017208e-06 1.9283896e-06 9.355948e-07
0001c0 56 5f f3 35 20 aa 3b 35 97 ad 37 36 51 98 06 35
       1.8132657e-06 6.9910493e-07 2.7370168e-06 5.014054e-07
0001d0 59 9d 9a 34 99 46 7f 35 e6 9d 0e 35 b3 4d 26 35
       2.879922e-07 9.5097636e-07 5.3128895e-07 6.1952886e-07
0001e0 b6 ab 41 35 d6 1a ad 35 aa ef eb 34 1d 82 aa 35
       7.2147975e-07 1.2897315e-06 4.394654e-07 1.2703855e-06
0001f0 a0 69 10 35 e5 fe d2 34 13 46 98 35 6b 9c 79 35
       5.3797885e-07 3.9301008e-07 1.1345277e-06 9.2987347e-07
000200 21 10 2d 35 4e 57 d2 34 69 86 11 35 9f 7e 58 35
       6.447099e-07 3.917907e-07 5.42123e-07 8.065053e-07
000210 71 ca 4f 35 d3 76 79 35 ae 80 80 35 cb 3e dc 35
       7.74081e-07 9.293264e-07 9.574194e-07 1.6409552e-06
000220 55 73 bb 35 e9 e5 75 35 bf 0c fd 35 a1 5f b7 35
       1.3966152e-06 9.1604176e-07 1.8853679e-06 1.3662394e-06
000230 67 5f 05 35 64 ec 89 35 c7 f6 6e 35 f4 13 31 35
       4.968519e-07 1.0276094e-06 8.902102e-07 6.5966674e-07
000240 a1 19 35 35 79 e1 5a 35 3f 56 e6 35 e4 69 d2 34
       6.746505e-07 8.1539434e-07 1.7161436e-06 3.9192594e-07
000250 65 f7 f2 34 9d 2b f5 34 60 9b 66 35 f3 31 7f 35
       4.5256016e-07 4.566654e-07 8.590778e-07 9.506759e-07
000260 4b 19 ac 35 1a 0c ee 34 56 24 8c 35 42 82 62 35
       1.282236e-06 4.433976e-07 1.0441388e-06 8.438111e-07
000270 83 56 8d 35 d8 89 6e 34 0c ba 48 35 d0 05 cc 34
       1.0530497e-06 2.2215625e-07 7.477654e-07 3.800219e-07
000280 15 01 8f 35 c2 7b 2c 35 d4 d8 e5 35 55 43 d9 34
       1.0654645e-06 6.4255084e-07 1.7124935e-06 4.046839e-07
000290 42 7e 92 35 f1 9a 3c 35 0e 88 92 35 a9 04 4f 35
       1.0914594e-06 7.0260927e-07 1.0917445e-06 7.712029e-07
0002a0 99 90 10 35 ac 77 38 35 df 14 5c 35 03 e2 10 35
       5.38546e-07 6.8719487e-07 8.198676e-07 5.397307e-07
0002b0 51 c4 86 35 00 1a 32 35 81 6b 0c 35 61 d4 f6 35
       1.0040914e-06 6.6348e-07 5.2310503e-07 1.8390239e-06
0002c0 da ac b7 35 f6 bd e4 35 bd f9 cf 35 c4 7e ac 35
       1.3684869e-06 1.704261e-06 1.5495385e-06 1.2851892e-06
0002d0 eb 5a 1d 35 18 8c 9a 35 9c de 6c 35 ab 32 17 35
       5.861936e-07 1.1514667e-06 8.824079e-07 5.6325615e-07
0002e0 dc 9e 84 35 9f 72 7f 35 67 e2 e5 34 ec aa d9 34
       9.881e-07 9.51617e-07 4.2819303e-07 4.0543762e-07
0002f0 28 ca 03 35 d7 07 a5 35 5e d1 21 36 4c 91 5f 35
       4.909548e-07 1.229574e-06 2.4112737e-06 8.328541e-07
000300 98 62 1f 35 07 3a 9b 35 53 f1 83 35 e6 12 45 35
       5.937559e-07 1.1565288e-06 9.830495e-07 7.341572e-07
000310 7b b1 f7 35 75 67 11 35 5f a9 0c 35 26 ad b8 35
       1.8454588e-06 5.416726e-07 5.240053e-07 1.3759461e-06
000320 37 d5 19 35 ff 15 02 35 f3 23 d5 34 b9 88 ad 35
       5.730721e-07 4.846078e-07 3.9700498e-07 1.2929296e-06
000330 7a ac 75 35 30 70 c2 35 56 3e 6c 35 ab 42 7a 35
       9.15206e-07 1.4486777e-06 8.800756e-07 9.322927e-07
000340 af aa cc 34 d7 91 a9 35 9a 98 16 35 77 8a 90 35
       3.812215e-07 1.2633926e-06 5.610142e-07 1.0769135e-06
000350 fc 2b b5 34 7c 8e a5 35 45 dd 7e 36 ca 6b c2 35
       3.374588e-07 1.2334926e-06 3.7977745e-06 1.4485497e-06
000360 e4 eb 4f 35 98 ed e9 34 f8 6b 9a 35 4a 98 b3 34
       7.7456775e-07 4.3572504e-07 1.1505317e-06 3.3452153e-07
000370 96 05 52 35 b3 19 94 35 91 d9 24 35 c3 24 33 35
       7.8239225e-07 1.1034339e-06 6.141136e-07 6.673619e-07
000380 5e e6 1a 35 34 c0 be 35 60 ff 82 35 63 cf a3 34
       5.77047e-07 1.4212042e-06 9.760079e-07 3.051201e-07
000390 1c fb 8f 35 7e 54 12 35 10 23 ad 35 03 db 89 35
       1.0727413e-06 5.451219e-07 1.2899709e-06 1.0271036e-06
0003a0 14 8b 1d 35 16 05 42 35 35 a4 3f 35 b2 33 b0 35
       5.8689443e-07 7.227803e-07 7.1392e-07 1.3128067e-06
0003b0 22 c5 ce 35 59 91 11 36 9b 68 3d 35 7a 18 98 35
       1.5405569e-06 2.1691287e-06 7.056021e-07 1.1332006e-06
0003c0 82 f7 a6 35 69 d4 c0 34 2b a5 2d 35 07 56 9b 35
       1.2439998e-06 3.5917336e-07 6.4687873e-07 1.1573437e-06
0003d0 62 33 be 34 3d 22 a1 35 d1 17 5c 35 5c 8a 8a 35
       3.5427644e-07 1.2005399e-06 8.1991044e-07 1.0322069e-06
0003e0 30 cd c8 35 75 e1 0b 35 f9 89 5d 35 92 fd 30 35
       1.4960879e-06 5.210962e-07 8.252969e-07 6.59341e-07
0003f0 a8 19 72 35 f4 5c 92 35 18 b2 a4 35 f4 0a 1e 35
       9.018936e-07 1.0904901e-06 1.2270784e-06 5.8875526e-07

exp_avg f4 [256]
000000 d6 6a 87 b7 b6 ca a7 b8 76 6d f5 b7 43 08 a4 b9
       -1.6143003e-05 -8.0009384e-05 -2.9257248e-05 -0.00031286673
000010 6a 87 5f 38 d3 87 10 b9 54 6a 34 38 c4 17 2c 38
       5.3293457e-05 -0.00013783509 4.301437e-05 4.103013e-05
000020 e7 b0 21 b8 ce 72 d4 37 05 0d e5 b7 10 b3 b7 b8
       -3.8550144e-05 2.532583e-05 -2.730499e-05 -8.759473e-05
000030 4a 5f 8e b8 cf 20 13 b7 f4 33 03 b9 54 ff 04 39
       -6.7888366e-05 -8.769522e-06 -0.00012512488 0.00012683618
000040 6c 08 89 38 1b 83 7c b8 34 b3 95 b9 ab 60 a9 b7
       6.534238e-05 -6.0203583e-05 -0.0002855301 -2.0191384e-05
000050 16 42 60 b8 0a 04 25 39 60 38 86 b7 e8 e0 35 b8
       -5.346731e-05 0.00015737131 -1.6000296e-05 -4.3363223e-05
000060 8a 2a 05 38 3e 38 e9 37 1c 25 ee b7 fe f2 87 38
       3.174929e-05 2.7801954e-05 -2.8389091e-05 6.4825625e-05
000070 83 c1 ad b7 f7 c6 81 b8 3a e2 2f 38 d0 e6 18 b9
       -2.0713318e-05 -6.1882594e-05 4.193394e-05 -0.00014581834
000080 81 f0 bd 37 f0 5d fc b8 9d 55 4a 38 f7 7b 04 38
       2.2642549e-05 -0.000120337936 4.8240287e-05 3.1586704e-05
000090 12 cd dc 37 ac 49 b2 b7 fa 38 2f 38 80 de f8 b9
       2.6321537e-05 -2.125356e-05 4.1776315e-05 -0.00047468022
0000a0 2c a9 3c 38 3a 64 f7 b7 84 85 29 b9 2e da b3 b8
       4.4980246e-05 -2.9491366e-05 -0.00016166834 -8.576024e-05
0000b0 06 01 8d b8 6b 9b 34 37 b4 e2 dc b6 20 b3 b1 38
       -6.7235946e-05 1.0765022e-05 -6.5829026e-06 8.473382e-05
0000c0 ef 80 21 38 4b c3 b3 b7 bf 29 9f 39 5a 76 ff 38
       3.850547e-05 -2.1429403e-05 0.00030357947 0.00012181392
0000d0 d2 98 bd b8 ba 14 20 38 bd eb 28 b9 c1 0f f5 38
       -9.040687e-05 3.8166276e-05 -0.00016109548 0.00011685445
0000e0 2e fa 92 b8 2b 3a bd b8 b6 2d e4 38 44 0a 20 37
       -7.008422e-05 -9.023057e-05 0.000108804015 9.539133e-06
0000f0 59 d4 db b7 dc 8f e6 b6 59 bf e4 36 e5 10 50 39
       -2.6205716e-05 -6.8712816e-06 6.8172053e-06 0.0001984272
000100 c5 f6 db b6 1d 3c 6a 38 87 f4 ab b8 48 02 3b b7
       -6.5554364e-06 5.5845932e-05 -8.199462e-05 -1.11466e-05
000110 e8 ad a4 37 17 9b 3d b8 62 2c 6a b8 0d 65 2c 39
       1.9631305e-05 -4.520555e-05 -5.5831282e-05 0.00016440843
000120 3b be 80 b9 90 40 05 39 aa 8a 24 38 9a 18 b8 38
       -0.00024555795 0.0001270792 3.9229788e-05 8.778386e-05
000130 f7 1d 05 b8 c6 29 68 34 ab 85 4c b8 18 94 f1 38
       -3.1737578e-05 2.1621881e-07 -4.8761878e-05 0.0001151936
000140 d2 be 97 38 23 f6 1b b9 9d 7b f5 36 68 05 2e b9
       7.235784e-05 -0.00014873645 7.3159595e-06 -0.00016595947
000150 98 37 89 b7 42 86 2b b8 45 31 3b 38 c5 1d b0 b9
       -1.635756e-05 -4.0894614e-05 4.463016e-05 -0.00033591516
000160 0b ef 30 b7 8f cc 38 b8 39 41 0b 39 78 60 14 b8
       -1.0546074e-05 -4.405953e-05 0.0001328037 -3.5375793e-05
000170 ed 63 05 b8 5c 79 d0 b8 e9 fd b9 38 c8 e6 bf 38
       -3.1802734e-05 -9.940818e-05 8.868782e-05 9.150576e-05
000180 95 84 03 37 f4 34 00 b9 e8 3e 00 39 fc 90 30 b8
       7.839078e-06 -0.00012226758 0.00012230466 -4.2096697e-05
000190 8c 9b f4 b7 85 53 0e b8 8d 4c 04 b9 df 52 ce b8
       -2.9159499e-05 -3.3933222e-05 -0.00012617018 -9.8382814e-05
0001a0 b2 10 eb b7 8d db 16 b8 22 cd 25 b8 fa bc d2 38
       -2.8021957e-05 -3.596726e-05 -3.953011e-05 0.0001004878
0001b0 63 ac f9 b7 f7 ed 2d b8 04 9d 17 b9 d0 3f d3 b8
       -2.9763387e-05 -4.1468036e-05 -0.00014458975 -0.0001007315
0001c0 91 37 40 b8 f8 40 e8 b7 1b e6 ae b8 09 ba 19 39
       -4.5828117e-05 -2.7686809e-05 -8.339827e-05 0.0001466052
0001d0 a5 16 59 b8 d4 eb 9c b7 ab cc 8d 37 52 4f 10 39
       -5.175792e-05 -1.8706465e-05 1.6903816e-05 0.0001376246
0001e0 13 50 93 38 e9 5c 33 b8 47 2d a6 39 1e b9 69 38
       7.024421e-05 -4.2763455e-05 0.00031695722 5.5723933e-05
0001f0 36 45 ac 38 dd 8d 63 38 cb c4 f0 37 33 0e 02 b9
       8.214491e-05 5.4253138e-05 2.8701868e-05 -0.00012403056
000200 38 ac dd 38 ee 5a 99 b9 10 52 9b b6 69 a0 5c 38
       0.000105701794 -0.00029250182 -4.6289133e-06 5.260148e-05
000210 c6 72 4e 38 5d 1d 0b 38 c2 26 b4 38 45 c2 cb 38
       4.922112e-05 3.316753e-05 8.590288e-05 9.71598e-05
000220 52 4a 00 b8 65 b3 99 b8 44 f8 9c 34 3b d5 35 38
       -3.0586794e-05 -7.329023e-05 2.92379e-07 4.335235e-05
000230 28 b6 76 39 cc fe 8f b8 3d c4 e3 b7 93 d9 8c b7
       0.00023528247 -6.866231e-05 -2.715189e-05 -1.6790616e-05
000240 4c 1b 12 37 e1 95 cf 38 10 16 73 37 c0 04 39 b7
       8.708634e-06 9.898446e-05 1.44890655e-05 -1.1027965e-05
000250 76 c0 e9 38 4f 99 4a b8 6f e9 57 b8 34 da 80 b8
       0.000111461544 -4.8303333e-05 -5.1477396e-05 -6.144159e-05
000260 40 be 13 b8 f3 ad c9 38 d2 fa 7c b7 b7 e9 5a b8
       -3.5224715e-05 9.6168274e-05 -1.5078769e-05 -5.2192914e-05
000270 28 32 06 b9 f2 7b 21 38 b7 cb 8a b8 19 ef 88 b8
       -0.0001279792 3.8500824e-05 -6.6182976e-05 -6.529521e-05
000280 46 1d 07 b9 fc 54 00 39 45 6a fe b7 6a 4d ae 38
       -0.00012885508 0.0001223869 -3.0328645e-05 8.311386e-05
000290 ac 62 7c b8 fa d1 cb 38 5a 82 e6 b8 8a df e7 b7
       -6.0173377e-05 9.7189055e-05 -0.000109915345 -2.764144e-05
0002a0 f6 d9 8b 36 6f d4 08 b8 d9 1a a2 b5 7e db 57 36
       4.167897e-06 -3.262277e-05 -1.2077754e-06 3.2165258e-06
0002b0 2c 8f 4f 36 c0 7e 86 b9 c8 49 e7 b8 36 93 b7 39
       3.092874e-06 -0.00025652908 -0.00011028681 0.0003501416
0002c0 1c 55 b6 b7 29 61 d4 38 24 80 93 37 2c 46 8f 37
       -2.1735723e-05 0.00010127045 1.7583436e-05 1.7079605e-05
0002d0 c7 ee 5a 38 17 c9 06 39 70 c8 4f b8 1f 54 a0 b8
       5.219763e-05 0.00012854148 -4.9539318e-05 -7.645063e-05
0002e0 a1 2b 9b b7 93 ff 94 b7 7e 11 a7 b8 23 f2 e0 b6
       -1.8497756e-05 -1.7761986e-05 -7.966439e-05 -6.7039086e-06
0002f0 ed be 25 b8 42 05 87 b8 ca 2d bf 37 e5 7b e9 b8
       -3.951688e-05 -6.438281e-05 2.2790296e-05 -0.00011133383
000300 ac ac 57 b7 f4 bd 47 39 ed cb 95 b8 43 d8 cb b8
       -1.2855202e-05 0.00019048882 -7.142858e-05 -9.720076e-05
000310 4c 81 b3 38 cb 75 60 38 63 a1 c1 b8 30 cb 69 37
       8.5594686e-05 5.3515465e-05 -9.233018e-05 1.39351905e-05
000320 e6 2b 97 38 49 91 6b b6 94 6c eb b8 72 a1 0f 37
       7.208418e-05 -3.5102296e-06 -0.000112258975 8.561054e-06
000330 79 a5 ae 36 bc b8 e8 b8 81 58 5b b8 46 28 0e 39
       5.2048676e-06 -0.000110970315 -5.2296095e-05 0.00013557178
000340 47 5c b3 37 3c 5b 4f b7 d7 42 63 b8 17 69 50 38
       2.1381433e-05 -1.2359404e-05 -5.4183267e-05 4.9688937e-05
000350 64 29 77 b7 57 de ed b7 bb 2f 51 37 a1 76 42 38
       -1.4731984e-05 -2.8356137e-05 1.2468484e-05 4.6363686e-05
000360 a0 82 a9 38 92 02 5e b8 cf 09 16 b5 c2 1b 6d 38
       8.082879e-05 -5.293132e-05 -5.589363e-07 5.6531055e-05
000370 72 b9 00 b7 f5 95 00 38 ff bf 6e 38 9f aa 5b b8
       -7.672572e-06 3.0657236e-05 5.6922432e-05 -5.2372572e-05
000380 ab 7d a3 b7 ac 38 bc 38 73 fc 47 b8 db 78 81 b8
       -1.9489633e-05 8.9750945e-05 -4.768041e-05 -6.1737104e-05
000390 b4 50 5d 39 fa fb 13 b9 d8 e6 c2 38 61 f4 f5 b7
       0.00021106267 -0.00014112881 9.293639e-05 -2.9320074e-05
0003a0 b5 53 a3 b7 d2 e0 95 38 1a 2e a2 36 9d 78 b0 38
       -1.9470093e-05 7.14675e-05 4.833343e-06 8.4148e-05
0003b0 90 b0 05 b9 cb 8b 14 b9 01 0f f4 b8 79 bd 0d b9
       -0.00012749643 -0.00014166457 -0.00011637621 -0.00013517392
0003c0 a4 c5 0e 38 41 67 a0 b8 8f bf 99 39 4b 26 bd 38
       3.4039505e-05 -7.648627e-05 0.00029325156 9.019355e-05
0003d0 1d ce 9d 38 96 63 06 b8 d9 a2 7b b8 b0 ec 19 38
       7.524735e-05 -3.2040836e-05 -5.9994727e-05 3.6698475e-05
0003e0 d2 4f 49 37 32 98 fa b7 6d 92 ae b8 41 4e 0f b8
       1.1999118e-05 -2.9873194e-05 -8.3242405e-05 -3.4166736e-05
0003f0 b0 43 99 38 fb aa 0d b9 bd 29 6d b8 b1 59 29 37
       7.308216e-05 -0.00013510503 -5.6544075e-05 1.0094068e-05

exp_avg_sq f4 [256]
000000 f2 19 0a 33 3a 14 16 35 4d 57 14 33 f1 1f 39 35
       3.2154226e-08 5.590879e-07 3.4538335e-08 6.896435e-07
000010 e2 ac 1f 34 c6 fe 4c 34 07 bb 2a 33 fe 0b d8 33
       1.4870923e-07 1.9091667e-07 3.975131e-08 1.0060465e-07
000020 e1 2f 63 34 a1 f7 87 33 c7 e1 0a 34 01 9e ee 33
       2.115844e-07 6.331471e-08 1.2934389e-07 1.11114794e-07
000030 7c 45 ec 33 a3 be a1 33 71 59 79 34 60 66 56 34
       1.10022455e-07 7.531823e-08 2.322247e-07 1.9967547e-07
000040 b8 a3 65 33 51 6c 59 35 cb 9a 03 35 56 8f d6 35
       5.346712e-08 8.099642e-07 4.9026556e-07 1.5985959e-06
000050 f1 6f 2f 34 10 24 02 34 0a 87 12 34 3f 62 c2 34
       1.6338869e-07 1.2120313e-07 1.3646437e-07 3.62068e-07
000060 36 86 ff 34 26 74 f6 33 7a 74 ee 33 f2 6c 00 34
       4.7595103e-07 1.1476395e-07 1.11039256e-07 1.1960563e-07
000070 84 d9 84 33 49 a1 2b 34 62 4d 46 33 e1 8e 46 35
       6.186295e-08 1.5984291e-07 4.6170847e-08 7.3968664e-07
000080 a1 8b 2a 34 11 6c ed 34 96 0b 8a 33 9f eb c6 34
       1.588328e-07 4.422332e-07 6.428233e-08 3.705181e-07
000090 c7 6f 7d 33 97 3c b0 33 11 3d 97 34 8f 73 98 35
       5.9007814e-08 8.20666e-08 2.8170373e-07 1.1358514e-06
0000a0 d8 b9 87 34 32 30 1a 34 a5 66 cc 33 e2 24 f3 33
       2.528093e-07 1.4359901e-07 9.518161e-08 1.1322278e-07
0000b0 bd 47 e1 33 79 a0 a6 33 48 e7 d9 33 02 73 03 34
       1.0490428e-07 7.759167e-08 1.014692e-07 1.2242165e-07
0000c0 5b 95 a4 35 da dc 2e 34 03 4b 51 35 8c 9f ed 33
       1.226242e-06 1.6285358e-07 7.7967724e-07 1.1065194e-07
0000d0 88 90 8e 34 6b 80 7a 34 f4 f6 58 35 59 99 14 35
       2.6554721e-07 2.3329783e-07 8.0825635e-07 5.5357447e-07
0000e0 0d dc db 33 7c c0 df 35 89 05 de 34 bf 05 3e 34
       1.0238009e-07 1.6670815e-06 4.135475e-07 1.769722e-07
0000f0 f5 53 b8 33 2d 62 87 33 92 97 11 34 0f c9 07 35
       8.5834394e-08 6.3042854e-08 1.3559318e-07 5.0584e-07
000100 f7 47 86 33 0e b0 0a 34 03 4c 00 34 df d9 06 34
       6.2529516e-08 1.29163e-07 1.1948582e-07 1.2558984e-07
000110 62 84 93 34 13 7c a5 33 ab 7c e3 34 2d e1 12 35
       2.7477205e-07 7.70598e-08 4.2372753e-07 5.471691e-07
000120 ad 0a 61 34 8f 0f e2 34 74 63 ae 33 36 a1 c0 33
       2.0958642e-07 4.21071e-07 8.120597e-08 8.970021e-08
000130 b5 90 9a 33 7c 1f 07 33 9e 7e 8c 34 7b e4 79 34
       7.197506e-08 3.146077e-08 2.6169158e-07 2.3273053e-07
000140 aa bd 52 33 16 60 a2 34 48 be 8e 33 8c 52 8b 34
       4.9066934e-08 3.0244763e-07 6.647002e-08 2.5950828e-07
000150 a1 7f a3 33 cf 35 87 33 c9 ba a3 33 66 2a 7c 35
       7.6134945e-08 6.296215e-08 7.624255e-08 9.3939013e-07
000160 be 34 98 34 90 58 66 33 53 43 cf 33 cd 66 25 34
       2.835058e-07 5.3631595e-08 9.651435e-08 1.5404221e-07
000170 13 c3 32 34 50 15 bf 33 19 cf cd 34 e6 69 77 34
       1.664851e-07 8.898007e-08 3.833491e-07 2.3042193e-07
000180 f6 e5 40 34 e2 03 18 34 21 e8 87 34 03 92 87 33
       1.7965053e-07 1.4157516e-07 2.5314606e-07 6.312987e-08
000190 dc 15 e8 34 5c a1 6c 33 0e cb bb 34 73 7b 81 33
       4.3229272e-07 5.5094787e-08 3.4979206e-07 6.029486e-08
0001a0 4e 43 63 34 58 7f 14 34 b1 00 39 34 66 b7 85 34
       2.1165508e-07 1.3829901e-07 1.7229719e-07 2.490662e-07
0001b0 ce 7c 2c 34 3d 09 96 34 4e 12 a7 34 41 60 39 34
       1.6064152e-07 2.79464e-07 3.1119492e-07 1.7264485e-07
0001c0 0c d3 21 34 45 51 9c 33 d7 3e a4 33 69 92 66 34
       1.5071072e-07 7.279099e-08 7.6482756e-08 2.1473683e-07
0001d0 36 ff b3 34 1d 79 a3 34 63 7e 8b 33 52 64 9f 34
       3.3527039e-07 3.0449237e-07 6.4956815e-08 2.968905e-07
0001e0 d4 b9 84 34 b9 af c8 33 c4 20 3a 35 cd 96 ac 34
       2.4722124e-07 9.3451895e-08 6.933808e-07 3.2147219e-07
0001f0 16 86 86 34 98 72 0c 33 0d 40 6f 34 2a e3 11 34
       2.5057005e-07 3.2700513e-08 2.2281911e-07 1.3586819e-07
000200 42 2d 2d 34 65 1d 21 35 63 82 14 34 e6 1e 98 33
       1.6128345e-07 6.001995e-07 1.3831009e-07 7.083672e-08
000210 ed a9 bd 33 a8 f1 b8 33 c1 25 a0 34 40 b5 d3 34
       8.831908e-08 8.612125e-08 2.9829792e-07 3.943369e-07
000220 41 23 d7 33 31 34 bc 34 1a 66 35 35 54 73 8d 34
       1.001813e-07 3.5055703e-07 6.757633e-07 2.634721e-07
000230 c4 08 b7 34 6f 1e aa 34 08 9d 84 34 ef 46 87 33
       3.4092784e-07 3.168711e-07 2.470117e-07 6.29933e-08
000240 4f 9c 84 34 52 a1 1d 34 82 d7 9c 35 e0 1e a8 33
       2.4700645e-07 1.4680452e-07 1.1685627e-06 7.828726e-08
000250 00 97 c3 35 33 16 13 34 cb 88 42 34 77 e9 81 33
       1.4572579e-06 1.3698518e-07 1.8117423e-07 6.0494976e-08
000260 86 a5 41 34 05 ee 41 33 b0 22 ce 34 87 9b 81 33
       1.8034743e-07 4.515279e-08 3.8395729e-07 6.035321e-08
000270 b1 e4 9f 34 ca ff 6d 33 c4 64 80 34 28 04 cf 33
       2.9782453e-07 5.54135e-08 2.3915175e-07 9.639945e-08
000280 c5 1c 16 35 44 dc 11 34 7e fb 88 33 19 20 07 35
       5.592122e-07 1.358431e-07 6.37874e-08 5.033813e-07
000290 f7 50 b3 33 25 ca bf 34 39 e8 22 35 fd a1 e7 34
       8.3500645e-08 3.5723602e-07 6.068763e-07 4.3144965e-07
0002a0 3a e3 7c 33 2e 9d 72 34 43 10 8c 34 6c 8b 9e 33
       5.8879984e-08 2.2595188e-07 2.6088864e-07 7.382809e-08
0002b0 2a 59 23 34 a2 a0 81 34 7b 70 4b 34 9b e3 12 36
       1.5212996e-07 2.4144998e-07 1.8946768e-07 2.188818e-06
0002c0 e6 2a 14 33 9f 8b 45 34 c0 97 53 35 39 ef 33 33
       3.449795e-08 1.8397849e-07 7.882445e-07 4.1894257e-08
0002d0 c1 8d ce 33 19 bc 22 34 f4 7f 4d 34 49 89 85 33
       9.6184074e-08 1.5155855e-07 1.9138662e-07 6.218267e-08
0002e0 d1 0c 60 34 78 4f 2c 33 c1 8b 75 34 79 eb 95 33
       2.0866288e-07 4.0119147e-08 2.2868245e-07 6.9811854e-08
0002f0 50 d4 b9 33 69 f8 b1 33 be f0 56 34 f9 33 ce 33
       8.653353e-08 8.28739e-08 2.0017885e-07 9.602076e-08
000300 4e 91 d1 34 3f 03 98 35 77 a9 1b 34 83 7f 88 35
       3.9035007e-07 1.1325827e-06 1.4497151e-07 1.01699e-06
000310 7d dc a5 34 60 d1 88 34 60 3d d2 34 c1 e6 b9 34
       3.089407e-07 2.5484314e-07 3.9160204e-07 3.462683e-07
000320 79 3b bc 33 cb 1a 55 34 65 86 11 34 37 c6 d8 33
       8.76525e-08 1.9846918e-07 1.355307e-07 1.0094339e-07
000330 6c 9e 42 33 c4 55 16 34 a4 7a 0a 34 e9 a8 36 35
       4.531323e-08 1.400104e-07 1.2896868e-07 6.804608e-07
000340 0c dc 94 33 52 41 69 34 67 78 02 34 e5 4a 06 34
       6.931813e-08 2.172358e-07 1.2150996e-07 1.2506969e-07
000350 66 5a 8f 33 4a 8b 3a 34 40 08 2d 34 40 58 b9 34
       6.6754e-08 1.7373273e-07 1.6114882e-07 3.4523146e-07
000360 74 06 19 34 5e a9 08 34 37 d9 bb 33 d1 30 a4 33
       1.4251583e-07 1.2727602e-07 8.747377e-08 7.645725e-08
000370 11 51 a0 33 2c 49 87 33 95 22 ef 33 75 1d 5e 33
       7.4653265e-08 6.299737e-08 1.1135595e-07 5.1715194e-08
000380 ac 80 a6 33 5a af e1 33 5c 2b b8 34 0d a2 63 34
       7.753383e-08 1.0509275e-07 3.430422e-07 2.1199976e-07
000390 33 06 11 35 4f 7d 8e 33 fb c7 10 35 51 93 75 34
       5.402573e-07 6.635184e-08 5.393519e-07 2.2870996e-07
0003a0 ab 77 3a 34 46 86 98 34 e6 8d 8a 33 1f 30 6c 35
       1.7366135e-07 2.8409903e-07 6.451937e-08 8.7986876e-07
0003b0 fd b6 07 34 e3 44 f9 34 0d 85 cb 34 70 69 1a 35
       1.2639426e-07 4.6429986e-07 3.7908504e-07 5.75229e-07
0003c0 08 4e 9e 35 74 0e bd 33 f9 ee 07 36 22 79 18 35
       1.1794627e-06 8.803627e-08 2.0255668e-06 5.6800684e-07
0003d0 ad 54 7e 34 42 9b 0a 33 7d 84 b7 34 aa 32 ad 33
       2.3686398e-07 3.2271835e-08 3.4182804e-07 8.065156e-08
0003e0 f3 41 9f 33 5c 89 bf 33 70 64 94 33 6c 0e ae 33
       7.4160106e-08 8.919116e-08 6.9100565e-08 8.10513e-08
0003f0 0d 3f b2 34 9b 20 fe 33 ea e8 ab 34 19 a6 a0 33
       3.320096e-07 1.18337276e-07 3.20207e-07 7.4807936e-08
